MLAppUnity/Assets/Demo/demo3/eater.onnx (onnx, 77282 bytes, 9 tensors)

action_model._discrete_distribution.branches.0.bias f4 [3]
000000 ea f9 5d be eb 73 49 3e 79 a4 35 bd
       -0.21677366 0.19673125 -0.044346306

action_model._discrete_distribution.branches.0.weight f4 [3, 128]
000000 ed 0a 44 bd fd 7d 83 be da ae 73 be 17 be 8c 3d
       -0.047861982 -0.2568206 -0.2379717 0.06872194
000010 fc bf 34 3e a1 b7 c9 b9 b8 aa 36 be 68 66 9a 3d
       0.17651361 -0.00038474522 -0.17838562 0.07539064
000020 5c 4b 7a 3e 62 4f c5 3d ca 04 4d 3d a6 7e 05 be
       0.2444281 0.09634282 0.050053395 -0.13036594
000030 c8 4d 35 bd 7a 46 53 3d 9a fa 37 3e e4 b2 b7 3d
       -0.04426363 0.051580884 0.1796669 0.089696676
000040 a2 16 b9 bd f2 2b 3f 3e a9 66 cd 3d 23 f1 8f 3d
       -0.0903752 0.18669108 0.100293465 0.07028415
000050 bb 3d 3b 3e c6 2d 2f bc ee 68 83 bd d6 1c 4a 3c
       0.18285267 -0.010692066 -0.06416498 0.012335977
000060 40 3d a2 3d e6 b3 de bd 88 f5 db bd 8b f1 f9 bc
       0.07921839 -0.10874157 -0.10740191 -0.030510684
000070 82 dc 43 3b 82 69 4d bd c7 d1 97 3d 11 da f1 bd
       0.0029886072 -0.05014945 0.07413059 -0.11809171
000080 90 3c 6d bd 3b 26 b4 bd e2 3b ab 3d 44 db f0 3c
       -0.057919085 -0.087963544 0.08361031 0.029401429
000090 b3 db fb 3b 46 90 85 3d d9 86 1b 3d 29 85 b8 3c
       0.0076861023 0.065216586 0.037970398 0.022524433
0000a0 b7 b3 4a bb 30 60 83 bd b0 34 c4 3d 91 29 3f 3e
       -0.0030929872 -0.06414831 0.09580362 0.186682
0000b0 4d ad fa 3d f8 1c 8f 3e b3 6b f0 3d e9 59 5e 3d
       0.12240086 0.2795179 0.11739292 0.054284964
0000c0 0d c8 55 3e 99 96 8a bd 61 da 64 be e0 42 de ba
       0.20877095 -0.067670055 -0.2234893 -0.0016957186
0000d0 b4 32 a8 bd 62 1a ec 3d 01 96 91 3d 25 6c 04 3d
       -0.08212796 0.115284696 0.07108689 0.032329697
0000e0 8b 5e 37 bd 83 94 5b 3d a2 6a ba 3d 50 5b 52 be
       -0.044767898 0.05360843 0.0910237 -0.20542645
0000f0 0a 86 e1 bd 92 89 b5 3d 23 a3 75 bd 5b 3b 7f bd
       -0.11011894 0.0886413 -0.059970032 -0.062312465
000100 d4 7c d8 3d 29 b6 07 3e 0f f9 99 bd 8e 4c 6c 3d
       0.10570684 0.13253082 -0.07518207 0.057690196
000110 93 0f af 3d f3 81 7d 3d 8c c2 b0 3d c8 84 de bd
       0.085478924 0.061891507 0.08630857 -0.1086517
000120 a4 d7 2b bd 7a f4 93 bd 05 fb e1 bd 88 2e 73 be
       -0.041953698 -0.072243646 -0.11034206 -0.23748219
000130 e4 2c 24 be c5 0c 36 bd 56 3e bc 3d 56 c1 5e bb
       -0.1603275 -0.04444577 0.09191577 -0.003398975
000140 11 95 e6 3d 48 9d 8e 3d 38 d7 b6 bc 2d 8d 4f bd
       0.11258901 0.06963593 -0.022319421 -0.050671745
000150 2c a1 74 3b 2d e6 37 3d 8b ea 00 3e de ad 6f 3d
       0.0037327511 0.044897247 0.12589471 0.058515422
000160 99 7c 7e 3e a8 4c ee bd fb 6d 9b 3e 29 86 3b 3d
       0.24852218 -0.11635715 0.30357346 0.045782242
000170 6b 50 25 bd 01 40 29 3d 0b 2d 07 3c cf f3 73 bc
       -0.040359896 0.041320805 0.008250485 -0.0148896715
000180 e0 cd 06 be 04 73 ec 3d e5 49 62 3e 4c 97 0a bc
       -0.13164473 0.11545375 0.22098501 -0.008458924
000190 81 c1 6e 3c 11 6d b6 3d bb d6 8a 3d ed cc e1 bd
       0.014572502 0.089075215 0.06779238 -0.110254146
0001a0 b7 44 b5 bb 41 87 c8 bc 03 d5 90 bc 98 8e 12 bd
       -0.005531873 -0.024478557 -0.017679697 -0.03578052
0001b0 59 25 3a bd 9c 98 a5 3c 39 50 1a 3c d4 db 81 3d
       -0.045445774 0.020214371 0.009418541 0.06340757
0001c0 85 54 fc 3d 7b f9 d5 bd b9 4a 78 bd bb 23 59 3e
       0.12320808 -0.10447975 -0.060618136 0.21205036
0001d0 c3 93 0d 3e 7f 66 d4 bd 01 85 c4 3c 41 98 bd bd
       0.13825898 -0.10371112 0.023989202 -0.09257556
0001e0 42 b1 32 3e a5 a2 a7 3d e2 2a f9 3d f2 9b 29 be
       0.17450431 0.08185319 0.12166382 -0.16563395
0001f0 e8 dd 34 3e 5c 18 bc bd e3 06 1e be a6 08 bb bd
       0.17662776 -0.09184334 -0.15432315 -0.09132509
000200 30 b8 d5 3d 9d c8 25 bd 92 07 85 bc 59 d2 1c 3e
       0.104355216 -0.040474523 -0.016238961 0.15314616
000210 2f bf 42 bd 21 a3 c1 bd e2 2f 58 3e 55 63 24 be
       -0.047545608 -0.094549425 0.21112016 -0.16053517
000220 c6 04 44 be ce cb ab bd 2c 33 c3 bd dd 59 27 3d
       -0.19142446 -0.08388482 -0.09531245 0.040857185
000230 cb c0 ce 3d d8 cc 83 bd f7 e3 b4 bd 00 f5 f5 bd
       0.10095366 -0.06435555 -0.08832543 -0.12009621
000240 6e 63 25 be f1 94 2f be 47 af 3c bd 23 a0 80 3d
       -0.1615121 -0.1714666 -0.046065595 0.06280544
000250 5f c5 b4 bd ec ec 85 ba ee 34 5a bd a4 d4 c9 bd
       -0.08826708 -0.0010217703 -0.053273134 -0.09855011
000260 ff a3 6f 3c 7a da 8a bd b8 41 8f 3e 67 6c 3d 3e
       0.014626502 -0.06779952 0.27979827 0.18498383
000270 98 4c bf bd c1 45 f6 3d 74 a9 23 bd c8 c0 80 3c
       -0.09340781 0.12025023 -0.039956525 0.015716925
000280 2f 42 0c be ce 42 10 3c 0c ef fd 3c d5 7a e3 3c
       -0.13697122 0.00880499 0.030997775 0.027768532
000290 91 11 ff 3c c5 b9 1f 3d d3 93 b7 3d a2 c0 e3 ba
       0.031136306 0.038995523 0.08963742 -0.0017376135
0002a0 ed a9 ee 3d 52 b0 b5 bd 45 2f dc 3d c8 ca c2 bd
       0.116535045 -0.08871521 0.107512034 -0.09511334
0002b0 b2 6f 9b bb 59 f3 14 be ef ae 6c bd 32 36 5b bd
       -0.0047435397 -0.14545955 -0.057784017 -0.05351848
0002c0 9d dc 47 be b6 98 dd bd 59 8f 6a bd f7 72 92 bd
       -0.19517751 -0.10820143 -0.057265613 -0.07150834
0002d0 fc 4b 82 3d e7 c8 12 be d1 a2 a4 bd 9e cc cd 3d
       0.06362149 -0.1433445 -0.08038867 0.10048793
0002e0 5d 55 12 3e 40 18 59 bd ca e5 9c bc e1 db 0d 3e
       0.14290376 -0.053001642 -0.01915254 0.13853408
0002f0 18 e3 e3 bb 66 e5 93 3d 86 c0 43 3b 8e 0b 0d 3e
       -0.006954562 0.07221489 0.0029869392 0.13773939
000300 f0 00 b3 bc 13 83 17 be c8 7f ff 3d f6 51 9b bd
       -0.021851033 -0.14796095 0.12475544 -0.07583992
000310 5f ed 01 be da a7 03 3d b3 6b 69 3b 01 cb 24 be
       -0.12688206 0.032142498 0.0035617172 -0.16093065
000320 c6 3f 52 3d 8e a6 e7 3d 84 37 2c 3e d6 47 c0 3c
       0.05133035 0.11311065 0.16818053 0.023471754
000330 0d bb df bb bd 22 7f 3c 4d c9 59 3c ae c5 b3 3d
       -0.006827718 0.015572247 0.013292623 0.08777939
000340 17 5e 20 be 52 be 63 3d 48 e1 4a be 3a df b1 3e
       -0.15660892 0.055601425 -0.198125 0.3474062
000350 c5 86 b6 bc 7c 66 d9 bd 87 c5 c8 bd e6 f1 08 bd
       -0.02228106 -0.106152505 -0.098033 -0.033433817
000360 b6 b5 0d be 28 c7 85 bd 23 b3 d9 bd 3e 8c 81 3d
       -0.13838848 -0.06532127 -0.10629871 0.06325577
000370 4b 78 fd bd de 8a b1 3c 85 42 aa bd 87 0f 83 3d
       -0.1237646 0.021672662 -0.08313469 0.06399446
000380 bd 07 47 3e 27 b4 8e 3b f6 34 4c be a9 31 3d 3d
       0.19436546 0.004354972 -0.19942078 0.046189938
000390 e8 d6 e1 bd 3d 50 b8 bc 6e e0 67 bd e8 38 62 bd
       -0.11027318 -0.022499198 -0.056610517 -0.05523005
0003a0 6d 52 06 bb aa 89 b8 3d 2d d2 a2 bc 09 be 9d 3d
       -0.0020495907 0.09010632 -0.01987561 0.07702262
0003b0 da d1 17 3e 30 6b fe 3d 14 e5 2b be 42 c0 30 be
       0.14826146 0.12422788 -0.16786605 -0.1726084
0003c0 fa 93 ec bd e2 92 b5 3a 78 ed f0 3c 91 67 3f 3c
       -0.11551662 0.0013852979 0.029410109 0.011682407
0003d0 a1 43 4f be b7 7c db bd 3f ca 23 3d dd 8c b0 bd
       -0.20240642 -0.10717147 0.0399878 -0.086206175
0003e0 5a d6 ec bb ef ff 8e 3d 1b d8 32 bd 79 24 cf bc
       -0.007227701 0.06982409 -0.043663125 -0.025285946
0003f0 0d fa 6d bc bf 60 33 3c 31 f5 3a bd e4 f9 29 3d
       -0.014524949 0.010948359 -0.04564399 0.04149808

action_model._discrete_distribution.branches.1.bias f4 [3]
000000 b7 85 82 bd 21 99 8d bc 78 ec ad 3d
       -0.0637316 -0.017284932 0.084923685

action_model._discrete_distribution.branches.1.weight f4 [3, 128]
000000 ae b6 86 3d b8 9e 13 be ad df 34 be a8 9e 69 bc
       0.06577812 -0.14416015 -0.1766345 -0.014259018
000010 df 02 7b 3d aa bb fd 3d 7b be 6f 3d 2d 47 ec 3b
       0.061282035 0.1238931 0.058531266 0.0072106333
000020 81 d2 25 3d 89 3b f5 bd b8 d1 0f bb 5b f5 94 bd
       0.040483955 -0.11974246 -0.002194507 -0.0727336
000030 56 cb 14 be a0 0a 46 be 9e a1 f3 3c d7 13 d6 3c
       -0.14530692 -0.1933999 0.029740151 0.026132507
000040 27 b5 fb bd ce a9 b1 bb 39 42 8e 3b e4 4b d5 3c
       -0.122904114 -0.0054218536 0.0043413904 0.026037164
000050 23 12 f4 b9 37 f4 8a bd 45 db d2 3c af ce 0f be
       -0.0004655282 -0.067848615 0.025739321 -0.14043687
000060 5e 3c cc bd 48 98 ef bd a6 10 b2 3d bd 36 ca 3a
       -0.099724516 -0.11698967 0.08694582 0.001542769
000070 49 bf c8 bc 8d 97 1c 3d d7 45 f6 bd 78 d0 a2 bd
       -0.024505274 0.038230468 -0.1202504 -0.079499185
000080 f1 ee 28 be ed b7 31 be 03 8c dc bc 5e e8 6f bd
       -0.16497399 -0.17355318 -0.026922232 -0.058571212
000090 07 ea 39 3d 17 29 e4 bd 70 ab 15 be 6c 29 66 bd
       0.0453892 -0.1114065 -0.1461618 -0.056191847
0000a0 b4 f7 4c be 51 ce 9f 3d 3f 94 16 bd 07 bd 10 3d
       -0.20016366 0.078030236 -0.036762472 0.03533652
0000b0 44 ef c5 3c 5e cc 63 3d b8 f0 11 3d 76 ef 56 bd
       0.024161942 0.05561482 0.035629958 -0.05247446
0000c0 e8 a3 e8 bc df b8 da bd d4 30 34 be 43 7c a3 bb
       -0.02839847 -0.106797926 -0.17596751 -0.0049891784
0000d0 4c a5 8e bd 5d 58 ce 3c dc 4c 78 3c 9a e5 f5 3c
       -0.069651216 0.02518862 0.015155043 0.03001671
0000e0 48 6d be 3b 4b c2 aa ba 9a d3 06 be 66 e6 ba 3c
       0.005811367 -0.0013027875 -0.13166657 0.02281494
0000f0 86 48 a6 bd e6 8b f1 bd 89 40 a0 3d 75 6f f2 bd
       -0.081193015 -0.11794262 0.07824809 -0.11837665
000100 4e 6f 58 3d 68 6a 4b 3d ec 0f d9 bd 93 93 2b bc
       0.052840523 0.049662024 -0.1059874 -0.010472196
000110 a2 89 af 3a cd c0 a3 3d 87 c0 79 3d 08 7c 87 be
       0.0013392458 0.07995758 0.060974624 -0.26461816
000120 9c 8e 94 bd 2c 21 c0 3d bb 18 c6 3c 7a 75 1e be
       -0.07253763 0.09381327 0.024181714 -0.15474501
000130 ab 8a 43 bd 05 eb ef b9 93 5b cc 3c 7d 9a 0f bd
       -0.047739666 -0.00045760736 0.02494601 -0.03505944
000140 ac 4f e2 3c d1 95 13 3d c2 49 ef bd 39 a6 10 3e
       0.027625881 0.036031548 -0.1168399 0.14125909
000150 6c a0 d1 3d 19 e7 85 be 03 8d 30 be 71 d2 62 3d
       0.10235676 -0.26152876 -0.17241292 0.055376474
000160 30 cf a1 bb ea 89 a4 bd b4 d9 d3 3d d4 33 ec bd
       -0.0049380288 -0.080341175 0.10344258 -0.11533323
000170 ed 75 45 be f8 d2 6d 3b 5b 63 99 3d 70 fd b2 bd
       -0.19283266 0.0036289077 0.07489654 -0.087397456
000180 f9 c1 71 3d 45 9e d3 3d 57 ee 82 3b cf 08 8e bd
       0.059022877 0.10332922 0.0039956975 -0.06935274
000190 ef 45 8b be 08 92 d9 ba ca 7a 72 bc 90 eb 82 bd
       -0.27201793 -0.0016599307 -0.014799783 -0.06392586
0001a0 fc 76 e4 bd b2 c0 a2 bd 8b ea b1 bd 33 f0 b2 3d
       -0.11155507 -0.0794691 -0.08687314 0.087372206
0001b0 7c d3 0c bd a3 e2 af bc af 6a cc bd cb 9d 03 be
       -0.034381375 -0.021470373 -0.09981286 -0.12853162
0001c0 ce ed b8 3d 1d 89 fe 3b 20 b4 45 bc fc 7c d0 3d
       0.09029733 0.00776781 -0.012066871 0.10180089
0001d0 a5 29 b1 3d 03 30 c9 bd 29 4a 46 bd f2 9e c6 bd
       0.08650521 -0.09823611 -0.04841057 -0.09698285
0001e0 da 8d 79 bd cc a6 58 bd e2 c2 5f bc 8b 7b 47 bd
       -0.060926296 -0.052893445 -0.0136573035 -0.048701804
0001f0 e2 55 64 bb 23 27 a1 3c 8b 9b 39 be 83 92 3b bd
       -0.003484123 0.019671982 -0.18125741 -0.04579402
000200 ce 9e 2a 3b 25 74 cc bd 3a 19 25 bd 76 6a a2 3d
       0.0026034596 -0.0998309 -0.04030726 0.07930462
000210 f7 80 44 bd 06 ee b1 bd 2c e2 3c ba b7 38 e7 3c
       -0.047974553 -0.086879775 -0.0007205333 0.028225286
000220 bf 63 a3 bc 09 0a 31 3d e4 ab 09 3d ba ef 63 3d
       -0.019945024 0.04322246 0.033611193 0.055648543
000230 8d ae 18 3d c6 85 8c bc 34 05 5d bb f3 ef 21 3e
       0.03727584 -0.017153632 -0.0033725025 0.1581419
000240 07 88 08 3e 9b 4f 32 bc ce e4 c9 3d 99 06 e9 bc
       0.1333314 -0.010883237 0.09858094 -0.028445529
000250 6f eb a8 bc 5e 01 5a bd 6b a0 d1 bc 17 1d 91 3c
       -0.020620076 -0.05322396 -0.025589189 0.017714066
000260 b5 5e c5 bc 0e 16 c1 3d db e2 fe 3c fe 94 72 3d
       -0.024093011 0.09428035 0.031114032 0.05922412
000270 0e 23 b0 3c 5b 10 ae 3b b9 4a c6 3d 8a 2f 0e 3e
       0.02150109 0.0053120083 0.09682221 0.13885322
000280 81 6a 27 bd 79 e0 b0 3d dd 05 9b bc 0e 0c a3 3d
       -0.040873054 0.08636565 -0.018923694 0.079612836
000290 1f fc f8 bc b9 c8 81 bc d4 9a 25 3d 21 75 64 3e
       -0.030393658 -0.015842782 0.04043086 0.22310306
0002a0 04 2d 09 3d c0 62 9c bd 8f 4d 9c 3d 74 e9 8c 3c
       0.033490196 -0.076360226 0.07631981 0.017201163
0002b0 72 ec 77 bd b6 98 6f bd 62 72 d7 bc c9 29 06 bd
       -0.060528226 -0.058495246 -0.02629966 -0.032754693
0002c0 ab 23 8d 3d 19 ed 3c 3d 12 53 db bd 31 36 06 be
       0.06891569 0.04612455 -0.10709204 -0.1310661
0002d0 b1 e0 3c 3e de 35 dd 3c 9e 14 40 bd 4c eb 46 3c
       0.18445088 0.027003225 -0.046894662 0.01214106
0002e0 a7 0d 06 bc 7b 19 e2 bd 56 90 b3 bc 5e cd 86 bc
       -0.008181966 -0.11040016 -0.02191941 -0.016455349
0002f0 7f c4 a0 bb 7d 19 1e 3d 2b 89 d2 3d ab 0f 0e 3d
       -0.0049062367 0.038598526 0.10280069 0.03468291
000300 83 4c ab 3c 4b 9a 3f 3d 2d f7 54 3d c5 71 b3 bc
       0.020910507 0.046778005 0.051993538 -0.021904835
000310 4f a8 06 3d 75 5b 25 be 99 d6 3e bd 2e c7 e5 3d
       0.032875355 -0.1614817 -0.046591375 0.11219631
000320 cd 8a dc bc 9e a3 64 bd 0b bc dc 3c 78 7a 6a bd
       -0.026921654 -0.0558201 0.026945135 -0.0572457
000330 b7 33 fd 3d b1 83 83 bd f5 4e e1 bc 9e 82 a2 bc
       0.123633794 -0.064216025 -0.02750347 -0.019837674
000340 5e 42 5f 3d c1 3c 21 3d d6 5a 20 3e fd b5 33 3d
       0.054506652 0.03936458 0.15659651 0.04387473
000350 34 66 02 bb ba 85 23 3b 00 e8 54 bd 93 4c fb 3d
       -0.0019897344 0.0024951533 -0.051979065 0.12270465
000360 fa c0 63 bb dd d8 cc 3d 7f 1b f9 bd b0 92 da 3c
       -0.0034752474 0.10002301 -0.121634476 0.026681274
000370 4b 01 00 3d b5 55 5f bd fa b0 c5 bd f4 4b 96 3d
       0.031251233 -0.054525096 -0.09652896 0.07338706
000380 8e 95 c5 ba f5 c5 c8 bd 26 b4 ef 3d b1 5f f3 3c
       -0.0015074478 -0.09803382 0.117042825 0.029708715
000390 6f da 5d 3d e4 40 bb 3c ba dd 5b 3d b7 ec 2d 3c
       0.054163393 0.02285809 0.05367825 0.010615519
0003a0 50 f0 25 3c 20 2a 00 3e df d6 8a bd a2 5b 4b bb
       0.010128096 0.1251607 -0.06779265 -0.003102996
0003b0 12 2f 87 3c 28 35 0e bd ee 1a e2 3d be a4 fe 3c
       0.016501937 -0.034718663 0.11040293 0.031084415
0003c0 2d 9d 6f bd 8c b4 77 3d 79 83 63 bd 2c b8 33 ba
       -0.058499504 0.060474917 -0.055545304 -0.0006855752
0003d0 49 3b df 3c 44 39 97 bd 21 95 a1 bd f4 16 00 3e
       0.027249949 -0.073839694 -0.07889772 0.12508756
0003e0 29 8c 9c bd ad 5e 27 3d 88 cf 42 bd 9d 3a ac bd
       -0.07643921 0.040861774 -0.0475612 -0.08409617
0003f0 ea 11 0c bd b2 e3 12 3e e7 72 11 3e 51 86 35 3d
       -0.03419677 0.14344671 0.14203988 0.044317547

discrete_action_output_shape f4 [1, 2]
000000 00 00 40 40 00 00 40 40
       3.0 3.0

network_body._body_endoder.seq_layers.0.bias f4 [128]
000000 e6 a9 c5 3d 27 0c 19 be 36 ea 6c be 17 aa e4 bd
       0.09651546 -0.14946042 -0.2313622 -0.111652546
000010 07 9e 09 3e 5e 2e ed 3b e9 39 19 3e 35 5c 08 bd
       0.13439189 0.0072381934 0.14963497 -0.03329106
000020 e4 f1 04 3e d4 65 ea 3d b6 e3 33 3d 52 b2 07 be
       0.12982899 0.114452034 0.043918334 -0.13251618
000030 40 52 4c be af 3a 05 bd 74 c3 5c be 8f 0c 2a be
       -0.19953251 -0.03252667 -0.21558934 -0.16606353
000040 2f 4c 18 3d 48 cb 3a 3c 6b bc 08 be 33 5c 79 be
       0.03718203 0.011401005 -0.13353126 -0.24351577
000050 e5 95 04 3c 6f 18 94 3d 36 17 9b 3d 7f 5b 0f 3e
       0.008092378 0.07231223 0.075727865 0.13999747
000060 78 8a 1a be 2d 14 69 3e e4 07 ed bd d0 d8 d2 bc
       -0.15091884 0.22761603 -0.11573771 -0.02573815
000070 a1 26 04 3e a7 ab 1b be 40 99 d4 3d 48 eb bd 3c
       0.12905361 -0.15202199 0.103807926 0.02318348
000080 95 b6 6b be 71 40 2b 3d a1 7d aa 3d 25 a8 48 3e
       -0.23018868 0.041809503 0.08324743 0.19595392
000090 93 14 50 3e f9 d6 c0 bd 1f 68 2b 3d f1 37 06 be
       0.20320348 -0.09416003 0.041847344 -0.13107277
0000a0 ab ab d7 bd ce da bf 3d 68 a6 8e bd bf 48 07 be
       -0.1053079 0.093679056 -0.06965333 -0.13211344
0000b0 6e 8c 8d be 30 3d a3 3c a5 25 cc 3c a5 c1 26 be
       -0.27646202 0.019926637 0.024920294 -0.16284807
0000c0 fe 57 0b be 26 af f7 3d ed 66 86 bc 94 64 9f bd
       -0.13607785 0.12093954 -0.0164065 -0.07782856
0000d0 c3 c2 49 3d da 05 4c 3e 53 58 cd bd d3 6a c5 bd
       0.049258005 0.19924107 -0.10026612 -0.09639516
0000e0 3c 81 8b bd 39 e3 5e 3d 96 7b eb 3c c1 5a 4a be
       -0.06811759 0.054415915 0.028745454 -0.19761182
0000f0 6e 32 0b be 28 fd 41 bd e5 ba 70 3b 20 23 f5 3d
       -0.13593456 -0.04736057 0.0036732492 0.1196959
000100 44 2c 39 3d c3 a2 d9 3d 55 e0 86 be 66 42 2e be
       0.04520823 0.106267475 -0.26343027 -0.17017516
000110 1f 3f b5 bd 10 2f d0 bd 1a 58 4a bb d5 76 2b be
       -0.0884993 -0.101652265 -0.0030875267 -0.1674455
000120 0e 2f 89 be fd eb 92 bd 99 9d 87 be 16 67 c5 bb
       -0.26793712 -0.071739174 -0.26487425 -0.0060242517
000130 f2 85 04 be f6 b8 7e bd e6 14 d3 3d 84 0e 04 3e
       -0.12941721 -0.06218811 0.103067204 0.12896162
000140 29 4a e5 bd 76 1f dd 3d 41 0d 1e be 77 0c 8f be
       -0.111957856 0.10797016 -0.15434743 -0.27939197
000150 ce 0c e4 bd f2 8c aa bd ba d0 4b bd b9 43 46 b8
       -0.11135255 -0.083276644 -0.049759604 -4.726995e-05
000160 cc 2d 1c bc 21 c7 a0 bd ae ba 95 3d 79 23 b1 3d
       -0.009532403 -0.07850481 0.07310997 0.08649344
000170 dd 4a 1d be 47 03 4c bd 50 47 29 be 8a d6 c5 3d
       -0.1536059 -0.049807813 -0.1653111 0.09660061
000180 3f bb 98 bd 92 93 a0 bd 0e 05 f2 39 44 64 80 bc
       -0.07457589 -0.07840647 0.00046161603 -0.01567281
000190 2f 76 87 3e 7c 39 1e 3d ad ed a6 bd 79 74 92 bd
       0.26457354 0.03862904 -0.08150802 -0.07151122
0001a0 54 2d 40 be 59 f3 33 be a0 b4 48 be 14 e7 03 be
       -0.18767291 -0.17573299 -0.19600153 -0.12881118
0001b0 4e f5 6a bd a6 86 ec bd 24 c5 a2 3c 56 59 a4 be
       -0.057362847 -0.1154912 0.019869395 -0.32099408
0001c0 7a ec e8 bd 7a b8 73 bd 41 69 fb bc 59 53 04 3d
       -0.11373229 -0.059502102 -0.030689837 0.03230605
0001d0 2c 72 21 3d c6 12 71 be 6f 3d 63 bc 93 83 6e bd
       0.039415523 -0.23542318 -0.013869627 -0.058230948
0001e0 1e 1f 5d be a6 de ce bd 54 a9 8d bb 01 ed aa bb
       -0.21593902 -0.101010606 -0.004323164 -0.0052162413
0001f0 a3 a1 b9 bd 93 3a 5e bd 3a 18 91 3d 43 22 b5 bd
       -0.09064033 -0.05425508 0.07084699 -0.088444255

network_body._body_endoder.seq_layers.0.weight f4 [128, 9]
000000 5a 85 b3 be 64 f5 8e 3d b9 cb b2 3e be fd d5 be
       -0.35062677 0.06980398 0.34921053 -0.41795152
000010 52 c9 96 be 84 66 bd 3e 2d bf fd bd 08 f0 77 be
       -0.2945047 0.36992276 -0.123899795 -0.24212658
000020 67 74 57 3f f9 c3 f8 3e 78 39 f3 3d 34 c1 a0 3d
       0.8416199 0.48587015 0.11876196 0.078493506
000030 49 50 23 3e d8 93 04 3f f6 33 96 be 61 74 bf bd
       0.15948595 0.5178809 -0.29336518 -0.093483694
000040 9c 67 1d 3e 22 64 1f be 71 08 0e bf ed 15 e4 be
       0.15371555 -0.15565541 -0.5548163 -0.44547978
000050 4e 1f a1 3e 8e 07 df 3e 3d 7d e0 be 33 3e 6b be
       0.31469196 0.4356045 -0.4384555 -0.22972946
000060 a5 63 93 3e c3 9e 9f be 8c 5e f8 3d fa a3 37 3f
       0.2878696 -0.31175813 0.121274084 0.71734583
000070 1d 79 10 bd 1e dc bc 3d ac e6 27 3e f6 94 7c 3e
       -0.035271753 0.092216715 0.16396588 0.24666199
000080 99 0b 3d 3f 2e 25 25 bf d5 23 2d 3d fd 7b e6 3c
       0.7384582 -0.64509857 0.0422705 0.028135294
000090 77 01 d1 be 28 a6 00 3f 18 18 3d 3f 8b 98 c0 3d
       -0.4082143 0.50253534 0.7386489 0.09404095
0000a0 b8 f7 91 3f fa 81 9c bd b2 e6 c6 3d c4 18 ab be
       1.1403723 -0.076419786 0.097119704 -0.33417332
0000b0 d1 d9 9d bd eb fe 2b bf 69 5b 63 be 16 46 90 bd
       -0.07707561 -0.6718585 -0.22202839 -0.07044618
0000c0 b6 ec d5 3e 55 eb 51 3f d9 82 43 3f 51 c3 7a be
       0.4178216 0.81999713 0.7637153 -0.2448857
0000d0 44 6e a8 be d8 88 e2 be 8d a7 80 bd cf 35 55 3f
       -0.32896626 -0.44245028 -0.06281958 0.8328523
0000e0 6d ac 4d 3e 2e 8e 05 bf b3 cb b4 3d db ed 26 3e
       0.20085306 -0.52170074 0.08827915 0.16301672
0000f0 10 19 49 3e df 6d ad be 92 e1 40 bf 6f 59 92 3e
       0.19638467 -0.33872887 -0.75344193 0.28583857
000100 60 17 df bd fb 14 bc be 00 bf c9 bc ca 8e 6f 3f
       -0.1089313 -0.36734757 -0.024627209 0.93577254
000110 4c db 62 be c1 5c 0e bf 3a 4b 22 bc c4 5a 94 3d
       -0.22153968 -0.5561028 -0.009905631 0.07243875
000120 6d 1d e7 3e b1 0a 02 3e fe 27 03 be 78 28 a3 be
       0.45139638 0.12699391 -0.12808225 -0.31866813
000130 3b ff 43 3d 57 b3 12 bf f3 e8 ad bc f0 39 93 be
       0.04785083 -0.573049 -0.021229243 -0.2875514
000140 98 10 47 bf de a5 e2 be de 4a ed 3e dd a8 87 3e
       -0.77759695 -0.44267172 0.46346182 0.2649602
000150 4a 35 43 bf ae 99 c8 3e 2b 0b eb bd e9 86 27 bf
       -0.7625319 0.39179748 -0.114767395 -0.6544023
000160 38 a1 02 3f 6e 9c e2 bd f4 87 56 bf 85 88 1f bf
       0.5102725 -0.11064993 -0.838012 -0.6231769
000170 02 00 6f 3d 11 bd 69 be 45 d0 dc 3d 3e 1d 51 3e
       0.058349617 -0.2282603 0.10781912 0.20421311
000180 9b e9 23 bf 15 62 6d 3d b5 47 d3 bc 19 0f 29 bf
       -0.6402833 0.057954866 -0.025791029 -0.6603866
000190 0c 0d 5b 3f d9 c9 a2 be 57 75 b5 3d 7e c1 04 bf
       0.8556678 -0.31794623 0.088602714 -0.51857746
0001a0 15 d7 4b 3f 63 02 1e bf b2 52 d8 3e 06 dc 3c be
       0.79625064 -0.6172239 0.42250592 -0.18443307
0001b0 f7 c1 87 3e 4e 57 c7 3e 11 50 8e 3e a3 e3 94 3d
       0.2651517 0.38933796 0.2779546 0.07269981
0001c0 72 32 86 be 3a d1 2a 3f 13 14 85 be 0d d0 34 3f
       -0.26210362 0.66725504 -0.25991878 0.7062996
0001d0 40 19 71 be 8e 8c a0 be 55 c3 10 3f 8e 63 82 3e
       -0.23544788 -0.31357235 0.56548053 0.2546658
0001e0 3f 4b ba bc b9 17 26 3d 27 cc 89 bd 80 f5 55 be
       -0.022740958 0.040549967 -0.06728392 -0.20894432
0001f0 6a ff 2c 3e 75 84 fc be 7d bb 11 3b ea 31 65 3d
       0.16894308 -0.49319807 0.0022236996 0.055955805
000200 97 e3 0e 3f 5d 61 d9 3e 33 b2 6b bb 64 02 31 bf
       0.55816025 0.42457095 -0.003596437 -0.6914427
000210 ee 3a 4e 3e fb bf 92 bd 03 d3 08 bf a0 2c 05 bf
       0.20139667 -0.071655236 -0.5344698 -0.5202122
000220 fe c0 13 3f cd 88 72 be 5d e7 6c 3e 4f e8 83 bd
       0.5771636 -0.23684998 0.23135133 -0.06440794
000230 ff 26 21 bf a7 8f 6c be fe c0 2a bf 54 13 42 3e
       -0.6295013 -0.23101674 -0.6670073 0.18952686
000240 46 1b 25 bf 6b 39 68 be 58 71 5f 3e 9e 1e 3e 3e
       -0.6449474 -0.22678153 0.21820581 0.18566367
000250 b2 72 40 bf 04 d9 ab be bf cc 49 3d d5 eb 77 bf
       -0.7517501 -0.33564007 0.049267527 -0.96844226
000260 23 d4 7d 3e ed bf 18 bf a9 49 70 be 9c cf 90 3d
       0.24787955 -0.59667856 -0.23465599 0.07070848
000270 39 34 2b be d9 de d8 be 65 f2 41 3b 3c 95 f3 be
       -0.1671914 -0.4235752 0.0029593941 -0.47574794
000280 37 4a f4 bd 1e ec 20 3f 83 b9 bb 3e f8 c2 47 3e
       -0.11928218 0.62860286 0.36664972 0.19507968
000290 35 ff b3 3e 70 03 7d bd e1 fb d4 be 2a 13 78 bc
       0.35155645 -0.061770856 -0.41598418 -0.015141288
0002a0 a6 38 c8 bc 09 c0 27 3e c5 d3 14 bf 18 26 a3 3c
       -0.024441075 0.1638185 -0.58135635 0.019915625
0002b0 b5 db 4e 3e d0 80 2f be 19 05 2e 3d 6b e7 c0 be
       0.20200999 -0.17138982 0.04248533 -0.37676558
0002c0 b8 a4 c6 3e 59 9b 96 3e c1 8f 35 3f 9a 8d 50 3e
       0.38797545 0.29415396 0.70922476 0.20366517
0002d0 70 aa aa 3e 66 cd 43 3e 52 18 ab be b2 d7 bb be
       0.33333158 0.19121322 -0.33416992 -0.36688
0002e0 4b 1e 65 bc ef eb 87 be 7a ca 54 be ae 80 f2 3e
       -0.013984273 -0.2654719 -0.20780364 0.473638
0002f0 a1 c4 83 be 54 82 06 bf e8 98 2b 3e af db 82 3e
       -0.25735953 -0.52542615 0.16757548 0.2555823
000300 e7 85 38 bf da e7 88 3e 64 a6 20 be 5a ab e1 be
       -0.7207932 0.2673939 -0.15688473 -0.44076043
000310 56 df 23 3f 6f 5b 09 be 8f 98 6e bf 20 75 f0 3e
       0.6401266 -0.13413785 -0.93201536 0.4696436
000320 e3 a9 e3 3d c9 95 8b bf 10 be 83 3d 92 b2 2d be
       0.11116388 -1.0905086 0.06432736 -0.1696265
000330 09 56 06 3f 2a 4a 43 3e 41 81 a1 be 62 48 05 be
       0.5247503 0.1907126 -0.31543925 -0.13015893
000340 82 6d 7c be 4d 61 97 3e 4c ef 29 bf 6f 26 3b 3d
       -0.24651149 0.29566422 -0.66380763 0.04569095
000350 ca 5f cf 3d a9 73 8b be 3a c8 ee 3d 7a 33 e3 bc
       0.10125692 -0.2723668 0.11659284 -0.027734507
000360 a4 61 8d 3e 6b 11 36 bf b8 af 04 bf 42 d6 cd 3e
       0.27613556 -0.7112033 -0.51830626 0.40202528
000370 e7 02 b0 3e 3a 80 37 be f3 94 5c be 0b b8 ca bc
       0.34377214 -0.17920008 -0.21541195 -0.024745962
000380 c4 9d d6 3b cf fc 88 be 0b e1 d3 3d 1c 83 f7 3e
       0.006549569 -0.26755378 0.10345658 0.48342216
000390 81 16 8c 3d 19 4a f9 3e 2f 27 0f be 3e 01 34 bf
       0.0684023 0.48689345 -0.13979791 -0.70314395
0003a0 0e 44 ac be 3e 04 d9 be fe 9a 4e 3d ad ac d1 bd
       -0.33645672 -0.4238605 0.05044078 -0.102380134
0003b0 32 17 0d be 24 a7 bb 3e 71 0c 81 bc 5e 9c bc be
       -0.1377838 0.36650956 -0.015753003 -0.3683805
0003c0 ca 2a 08 3e a6 4f 6d 3e d7 2c 0f be 39 f1 c4 3c
       0.13297573 0.23174915 -0.13981949 0.024040805
0003d0 77 ef 82 3e 04 cc a9 3e a0 df ba be f0 c1 95 be
       0.25573322 0.33163464 -0.36498737 -0.29249525
0003e0 1e fc 79 3d 7c ba df be 21 a4 9b be a7 37 d3 bc
       0.061031453 -0.43696964 -0.30398658 -0.025783373
0003f0 71 69 72 bf 37 91 cc be d1 96 1a 3f b3 48 93 be
       -0.9469214 -0.3995454 0.6038638 -0.28766403

network_body._body_endoder.seq_layers.2.bias f4 [128]
000000 ff 7e 92 3c 10 ba 4b 3e cc 26 3f 3e 7a 92 1d bd
       0.017882822 0.19895196 0.18667144 -0.03846977
000010 4f 01 3d bd ec 3a 96 3c 92 c3 30 3e 52 64 0f bd
       -0.046143826 0.018338643 0.17262104 -0.035007782
000020 cf 65 86 bc 40 05 3f 3d 5e c1 47 3d 44 36 d5 3c
       -0.016405968 0.046635866 0.048768394 0.026026852
000030 88 7e 86 3c 6f 59 53 3d f6 b1 03 be 75 32 d3 3d
       0.016417757 0.051598962 -0.12860855 0.10312358
000040 24 b6 14 3e 3b d5 1d bd 03 8e 51 3d 87 b2 49 3d
       0.14522606 -0.03853343 0.051160824 0.049242523
000050 3a 6b b9 bd eb 6d 1c 3e a3 ee 35 3d 0e bb b4 3d
       -0.09053655 0.15276305 0.044417035 0.0882474
000060 3a 96 38 bd de b4 d3 3d ce 34 17 3e be 8d cb 3c
       -0.045065142 0.10337232 0.14766237 0.024847861
000070 ba e9 a0 3d bf 58 61 3d e7 2b 0f 3e 3a 54 f1 3d
       0.0785708 0.055016275 0.13981591 0.11783643
000080 12 7b 23 3e bd ac 36 3b cd 7e b6 bd ac d4 e9 3c
       0.15964916 0.0027873956 -0.08910904 0.028543793
000090 8a dc 84 bd 99 86 fd 3c 8a db 8d bd d7 ce a6 3b
       -0.06487377 0.03094797 -0.069266394 0.005090575
0000a0 26 7e 85 bd bd 74 b1 3d 8c dc 0a 3d 44 57 a7 bd
       -0.065182015 0.08664844 0.033901736 -0.081709415
0000b0 a2 03 9a bd e8 19 ae bb 23 74 be 3b 93 82 a4 3d
       -0.07520224 -0.005313147 0.0058121844 0.080327176
0000c0 8a 1e ac 3d cb 94 6b 3d 57 46 37 3e a6 03 c0 3d
       0.08404262 0.057514947 0.17897926 0.09375696
0000d0 66 38 f1 3d 7d 49 5b bc 7c 22 79 bd b9 0e 95 bc
       0.11778335 -0.01338422 -0.060823902 -0.018195497
0000e0 a2 e1 c6 3d 04 d3 cc bc bc d6 0b 3d ad f3 47 3e
       0.09711005 -0.025002964 0.034140334 0.19526549
0000f0 55 0e 13 3e 0c c9 57 bd 0e 95 00 be f7 e2 ba 3d
       0.14360936 -0.052681968 -0.1255686 0.09125321
000100 38 7e 5f 3c 28 99 b7 bc 26 5f 09 bc b5 d4 10 be
       0.013640933 -0.022411898 -0.008384502 -0.14143641
000110 9d a3 8d bc e1 d0 06 3e 73 95 8d 3d b9 fc 34 3e
       -0.017289931 0.13165618 0.06913271 0.17674531
000120 eb 8d b8 3c 78 c9 e1 3d d6 56 e6 3d 2d 18 25 3e
       0.02252861 0.11024755 0.112470314 0.16122504
000130 cf 89 1d 3e fa 3e 8e 3d 7b 78 9b 3c aa 40 98 3d
       0.15384601 0.069456056 0.018978348 0.07434209
000140 07 ae 3d 3d 03 9d 93 3d 40 75 58 3e b5 9f 21 3e
       0.046308544 0.07207682 0.21138477 0.1578358
000150 34 57 3c be 9f 9c b9 3d cf 18 89 3d cf 47 9d 3d
       -0.1839264 0.09063076 0.06694185 0.07679712
000160 c0 b6 15 3c d4 2d 32 3e 05 e2 b0 bd 8a db a0 3d
       0.009137809 0.17400295 -0.0863686 0.07854374
000170 49 c6 08 3e b7 ee a5 3d 9b 74 0b bc 42 08 63 3d
       0.1335689 0.08102172 -0.008511688 0.055427797
000180 97 90 37 3e f6 b4 be 3a fe 1c a0 bc 48 12 5d bd
       0.1792625 0.001454978 -0.019545075 -0.053972512
000190 2e 3d 00 3e ad 57 f6 3c 33 95 f4 3a f3 04 bf 3d
       0.12523338 0.030071104 0.0018660187 0.09327116
0001a0 2f 26 a6 3d fd 64 f1 bc af aa 40 3e ae e3 dd 3d
       0.08112752 -0.0294671 0.1881511 0.10834442
0001b0 fb 7d 5e 3d a6 2f 2b 3c f4 1f 22 3e 37 b0 cf 3d
       0.054319363 0.010448372 0.15832502 0.10141032
0001c0 fd 61 c8 bd 5c 6f 26 3d 67 bf 0e 3e 20 27 d4 3c
       -0.09784315 0.040633544 0.13940202 0.025897563
0001d0 d4 d9 27 3d f2 9f 31 3e 94 c5 5c 3c 2a b8 35 3e
       0.04097922 0.1734617 0.013474841 0.17746034
0001e0 9d 14 19 3c d9 f7 4d 3d b0 84 56 bd 0b a2 de 3d
       0.0093432935 0.050285194 -0.052372634 0.10870751
0001f0 ac e9 22 3d d0 ca 91 3d 7a 17 4b 3e 31 e6 01 3d
       0.039773628 0.071187615 0.19833174 0.03171367

network_body._body_endoder.seq_layers.2.weight f4 [128, 128]
000000 85 c1 07 bd 9f f9 f6 3d 77 17 11 bd c8 aa db bd
       -0.03314354 0.1205933 -0.03542277 -0.10725933
000010 3a 4d f1 3d cc 78 ae bd f3 e1 84 be f6 78 87 3d
       0.11782308 -0.08519134 -0.25953636 0.06614868
000020 c9 78 01 3d 40 49 b3 be ca 48 38 3d 72 01 88 bd
       0.03160933 -0.35016823 0.044991292 -0.06640901
000030 53 89 1c be d8 88 35 be 6b 9b 67 be a4 37 4d 3d
       -0.1528676 -0.17727983 -0.22617881 0.05010189
000040 4c 3c 80 be a4 f5 bb bd 79 78 ac bd 23 58 8d 3c
       -0.25046003 -0.091777116 -0.08421416 0.01725394
000050 48 db 35 be 33 69 79 bd cd 00 46 3e 4d 18 2f be
       -0.1775943 -0.06089134 0.19336243 -0.17099114
000060 14 96 83 3c 87 48 61 3c 29 32 8c 3d b6 c8 e3 bd
       0.016062774 0.013750202 0.06845505 -0.11122267
000070 db ed f6 bd c8 d6 5c 3e 46 a9 c3 bb 59 b3 4c 3d
       -0.12057086 0.21566308 -0.0059711067 0.049975727
000080 d7 05 42 bc 61 1d 32 3e c9 e2 64 be 25 f3 14 3e
       -0.011842213 0.1739402 -0.22352137 0.14545877
000090 20 9b a8 3d 9a 43 fe bc f2 ff 45 bd ff 1a 30 bd
       0.08232713 -0.031038094 -0.04833979 -0.042994495
0000a0 ee 33 f6 bd 64 73 12 be 20 42 5c bc d5 02 20 be
       -0.120216236 -0.1430183 -0.0134435 -0.1562608
0000b0 b3 4f 47 3d 7b c2 bb bc 83 af 82 3d 88 c3 83 3d
       0.04865999 -0.022919884 0.063811325 0.06433779
0000c0 67 55 88 be b3 02 e3 bd 39 6b 12 3e b2 29 3f be
       -0.26627657 -0.11084499 0.14298715 -0.18668249
0000d0 9c 09 68 3d 6f 60 12 bd ec c0 1a be 6f 64 81 3e
       0.05664979 -0.035736497 -0.15112656 0.25271937
0000e0 1e bf e9 3d cc 36 98 be 71 2a ef 3d f0 54 e6 3d
       0.11413406 -0.29729307 0.11678017 0.11246669
0000f0 3c 13 0c 3e ef 21 db bc 19 d4 ab bd e5 8e df bd
       0.13679212 -0.02674958 -0.08390064 -0.10915927
000100 a1 61 06 3a 47 59 9c bc 66 51 90 bc 56 66 12 be
       0.0005126242 -0.01908554 -0.017616939 -0.1429685
000110 31 eb 79 bd f4 28 b7 3c 84 50 75 3c 38 5f ed 3d
       -0.06101531 0.022358395 0.01497281 0.11590427
000120 59 90 03 3c 7e 4f a7 bd 9b b3 5d 3c 67 80 44 3d
       0.008030021 -0.08169459 0.013531591 0.047974017
000130 ec ba a0 bd 2a 08 90 bd b6 d3 dc bd 6c af 97 3d
       -0.078481525 -0.07032807 -0.10782568 0.07406506
000140 c5 60 44 3e 4a a6 64 be 98 91 10 3e 9a b0 34 be
       0.1917754 -0.22329059 0.1411804 -0.17645493
000150 1e 95 a0 bb b2 2e 50 3d 6c 78 b3 be 15 62 35 be
       -0.0049005887 0.050825782 -0.35052812 -0.17713197
000160 45 77 46 3e fe 69 1c be 2a 58 6d 3d de 20 86 3b
       0.19381435 -0.15274808 0.057945408 0.0040932735
000170 01 80 1d bd 19 7a 99 bd f1 8e b8 3d 03 46 18 bb
       -0.038452152 -0.074939914 0.09011639 -0.002323509
000180 cc 6e 9c 3d 89 94 24 bd db 6d 26 3d d8 7c 4d be
       0.0763832 -0.040180717 0.04063211 -0.20067155
000190 1d 8f dd bd 3f 4f 07 bd fd e2 90 be f0 74 70 bc
       -0.10818312 -0.03303456 -0.28298178 -0.014676318
0001a0 86 bf 3f 3c 52 99 fa 3c 3d 3b 71 bd 3f 13 d6 bb
       0.011703378 0.030590687 -0.058894385 -0.006533056
0001b0 34 12 7b bd 66 c4 23 ba 3e 50 5c 3d 76 a0 87 bc
       -0.061296657 -0.0006247222 0.053787462 -0.016556006
0001c0 51 1c b2 bc 83 2b 16 3d 8d 57 d3 3d 24 90 a5 3c
       -0.021742018 0.03666259 0.10319433 0.020210333
0001d0 ca f3 bb 3c 5a 80 96 bd 5d 07 c4 be c2 b9 18 3e
       0.022943396 -0.073487 -0.38286868 0.14914611
0001e0 c2 28 1a bd 55 f5 7d bd fe 6a 3c bd 0e d9 f0 bd
       -0.037636526 -0.062001545 -0.046000473 -0.1176015
0001f0 71 21 d6 bd 32 4c 25 be 33 3f b3 bd 9d f5 90 3c
       -0.10455597 -0.16142347 -0.08752289 0.017695243
000200 f6 28 6e 3e 1a cd 4a be 73 1a 7b bc 81 02 2b 3b
       0.23257813 -0.19804803 -0.01532613 0.0026094022
000210 1d 50 4f bd ba 03 38 be 2b 93 14 be 59 d7 08 be
       -0.05061351 -0.17970172 -0.14509265 -0.13363399
000220 b1 81 93 be 2b 1a e2 be 01 98 5d be e5 93 5b be
       -0.28809884 -0.4416059 -0.21640016 -0.21443136
000230 05 51 ee bd 34 da d5 bd 15 9e 6d bd 2a 95 f2 3b
       -0.11636547 -0.104420096 -0.058012087 0.0074030356
000240 f1 2b f9 3d 9d 81 43 3d ab ee 9e be b1 79 05 be
       0.12166584 0.04773103 -0.31041464 -0.13034703
000250 8d 28 a6 be e0 31 0a bf 56 26 90 be 00 06 4f bd
       -0.32452813 -0.53982353 -0.28154248 -0.05054283
000260 80 f0 a2 bd 92 19 a8 be 3b 4c c7 be 73 63 bf bd
       -0.07956028 -0.3283201 -0.38925347 -0.0934514
000270 af 49 f1 be 4c 6c 0e bd 8d 83 58 be a8 a1 6c bd
       -0.4712653 -0.03477125 -0.21143933 -0.057771355
000280 b3 c4 8d bd b9 b3 1d 3e ea 4c f0 bd 43 10 7f be
       -0.06922283 0.1540059 -0.1173342 -0.24908547
000290 d5 6e 42 be 5a 34 44 be c9 38 93 be 5a 45 8b be
       -0.18987592 -0.19160596 -0.2875426 -0.2720135
0002a0 05 b2 c5 3d fd 20 56 be a1 27 b1 be 3a a2 a8 be
       0.09653095 -0.20911022 -0.34600547 -0.3293627
0002b0 0f 19 17 be 96 16 c5 3c 21 7c e9 be 0a e3 90 bd
       -0.14755653 0.024058621 -0.45602515 -0.07074554
0002c0 e9 32 3d be 67 b4 e2 3d 47 65 61 be 13 a6 4e be
       -0.18476452 0.11069565 -0.2201129 -0.2018054
0002d0 ce 77 a7 be 8d 12 aa 3e 35 42 55 bd fa fb a0 be
       -0.3270859 0.33217278 -0.052065093 -0.31442243
0002e0 d5 f4 d1 3d 64 1e 25 3d 3b 76 3e be a1 b2 49 be
       0.10251776 0.040312186 -0.18599789 -0.19697048
0002f0 1b 85 9d bd fa 74 3c 3d 9b 23 ec bd 75 39 71 3d
       -0.076914035 0.046009995 -0.11530229 0.058892686
000300 5c 81 12 3d 0c d1 19 be bd 1b c0 bc 66 b3 36 be
       0.035767898 -0.15021151 -0.023450727 -0.17841873
000310 81 d1 47 3d 81 f8 30 3e ba fe 54 bc b7 e9 4f bd
       0.048783783 0.17282297 -0.013000185 -0.050759997
000320 4d f9 81 be 78 e7 1b 3b 76 68 7b be 81 9c 8c bc
       -0.25385514 0.002378909 -0.24551567 -0.01716447
000330 57 7e 53 bd 5a fa 9f 3d 27 23 a0 be 1f b5 31 3e
       -0.05163416 0.07811423 -0.3127682 0.17354248
000340 35 50 a9 3d d1 5c c6 3d 19 1a a6 bc 50 e9 9f be
       0.082672514 0.09685672 -0.020276116 -0.3123269
000350 ca 2c 19 bd 19 35 b0 bc 77 71 93 be bd 61 a0 be
       -0.03739623 -0.021509694 -0.28797504 -0.31324568
000360 5d 62 11 3d cf 42 2e bd a5 4e 2c 3e c8 be 55 3e
       0.035494197 -0.042544182 0.16826876 0.20873559
000370 6a 3a 51 be 72 68 52 3e bd bc 97 bd 24 1a 07 3e
       -0.2043244 0.20547655 -0.07409046 0.13193566
000380 dc 8a 6e be d3 0d 1e be 08 15 9e bd 7e 79 ae be
       -0.23295158 -0.15434961 -0.07718855 -0.34077066
000390 9b ad 97 be 06 ce 20 bd 59 57 08 be ac 43 81 bd
       -0.29624638 -0.03925898 -0.1331457 -0.063117355
0003a0 ce 50 63 bd 7b 4e a2 bc 3d a2 8a be 84 f0 82 be
       -0.055496983 -0.019812813 -0.27076903 -0.25574124
0003b0 75 09 37 bc 54 61 ca be b7 e7 f6 bd c2 4d 33 bd
       -0.011171688 -0.3952738 -0.12055915 -0.043775328
0003c0 9b a1 c9 3c c5 62 20 3d 6d 6b dd 3b 58 8d a9 be
       0.024613192 0.039156694 0.006757191 -0.3311565
0003d0 4c 06 95 be 7b 72 02 3b a1 df 47 bd 9b 0c 3e be
       -0.29106367 0.0019904661 -0.048797254 -0.18559496
0003e0 0d 10 57 3d 33 8a 45 bd 2c b0 5b be cc a2 22 be
       0.05250554 -0.0482275 -0.21453923 -0.15882415
0003f0 5e ff de bd f2 d0 c5 bc ec 36 07 be e0 24 77 3d
       -0.10888551 -0.024147484 -0.13204545 0.0603379
