MLAppUnity/Assets/Demo/demo2/FoodAgent.onnx (onnx, 77666 bytes, 11 tensors)

action_model._discrete_distribution.branches.0.bias f4 [3]
000000 88 99 52 bc 60 90 8e bb 3c 64 0a 3c
       -0.0128539875 -0.004350707 0.008446749

action_model._discrete_distribution.branches.0.weight f4 [3, 128]
000000 e8 6a f7 3b 69 6b 72 bb 80 1b 3d bc 00 d6 d7 bc
       0.007550586 -0.003699029 -0.011542201 -0.02634716
000010 52 a8 27 bc d6 dc bd bc 62 23 a9 bb aa 18 9b ba
       -0.010233002 -0.023176592 -0.0051616887 -0.0011832912
000020 0e 7a 66 3a a4 a7 d8 bb 9e cb a8 3b 86 f3 c2 bb
       0.0008791991 -0.006611781 0.005151226 -0.0059494404
000030 fe 68 a3 bc 83 35 22 3c 9f 51 81 bc cc 95 d4 3a
       -0.019947525 0.0099004535 -0.01578599 0.0016218959
000040 2e f0 8f bb a9 28 0f bc ee 52 ab bc f1 cd 11 bc
       -0.0043926453 -0.0087377215 -0.020913567 -0.008899198
000050 47 b9 96 bc 4f 55 91 bc be 66 44 bc c7 d1 8c 3b
       -0.018398894 -0.017740874 -0.011987386 0.0042974683
000060 8a cd 07 bc e3 d8 86 bc 58 c6 92 bb ae 81 52 bc
       -0.00828875 -0.016460842 -0.004479211 -0.012848301
000070 bb b5 c8 bb a3 c5 17 bb 99 e6 94 bb bd 3d 31 bb
       -0.0061251796 -0.0023158572 -0.004544091 -0.0027044856
000080 a4 1a f0 bb f8 dd 12 bb 4b 5a a4 bc e7 4f e2 bb
       -0.0073273946 -0.0022410136 -0.020062586 -0.0069064978
000090 f5 07 c0 bc b2 fe 9b 3c 1c df dc bc fa 9d bf bb
       -0.023441294 0.019042347 -0.026961856 -0.0058476897
0000a0 2a e9 49 bc 8d 30 8e bb 2c 0d 23 bc 85 2d 3c 3c
       -0.012323657 -0.004339284 -0.009951871 0.011485462
0000b0 b8 00 85 3c cc 90 90 bc 81 fb 1e bc 25 bb 24 3b
       0.016235694 -0.01764717 -0.009703518 0.002513596
0000c0 ad 38 52 bb 41 a9 04 bc 96 20 81 bc 4a 57 2c bc
       -0.0032077238 -0.008096994 -0.015762608 -0.010518858
0000d0 b6 63 bc bc 0b 4a 1d bb be 21 f5 bc 7f 9c 9e 3c
       -0.022996765 -0.0024000432 -0.029923316 0.019361733
0000e0 1d c2 29 ba bc e6 5d bc 44 68 47 bc 43 59 22 bc
       -0.00064757635 -0.013543781 -0.012170855 -0.009908977
0000f0 ea 8d a1 bc 28 74 c2 bb 65 1a 02 bc 5f 6c 8e bc
       -0.01972099 -0.005934257 -0.007940863 -0.01738566
000100 ce 3c d7 3b 79 d6 ed bc 34 26 a7 bb 3e e5 5d 3b
       0.006568528 -0.029032933 -0.0051009897 0.0033858563
000110 40 0d 73 3c 43 ad 46 3c 95 fa f1 bb a6 37 96 3c
       0.014834702 0.01212627 -0.007384608 0.018337082
000120 50 46 25 bc b9 47 bd bc db 8b ac 3b 00 cf b5 bc
       -0.010087565 -0.02310549 0.0052656955 -0.022193432
000130 c3 58 76 3b 2f 13 69 3c b7 01 d3 bb c9 d5 64 bc
       0.0037589527 0.014225765 -0.0064394134 -0.013966986
000140 07 03 4a bc 1a 4b b3 bc d4 99 41 bc 10 cf ce bc
       -0.012329823 -0.021886397 -0.011816461 -0.02524522
000150 8a c4 3a bc 21 e2 75 bc d7 e8 ce 3c 48 24 51 bc
       -0.011399398 -0.015007527 0.025257511 -0.012764998
000160 52 9d 0a bc 91 d4 54 3a a6 33 60 3c 56 6f 70 3c
       -0.00846036 0.0008118833 0.013684189 0.014674982
000170 60 ca 91 bc c8 1b b9 3c 62 a0 3c 3c 31 fc 39 bc
       -0.017796695 0.022596255 0.011512848 -0.011351631
000180 a3 c3 14 3c d1 52 b0 bb 70 5a 6e bc 19 8b 93 3a
       0.009079847 -0.0053809662 -0.014547929 0.0011256664
000190 30 48 7a bb 0f b6 3b bc 19 a0 20 3c b4 d2 12 bc
       -0.003819 -0.01145698 0.009803795 -0.008961368
0001a0 10 ab 92 bc b5 cf 14 3b 29 b3 f6 bb 0c 8d b9 ba
       -0.017903835 0.002270681 -0.007528682 -0.0014156415
0001b0 44 f9 eb 3b 40 79 e0 3a dc 1c cb bc 99 52 3a bc
       0.0072013456 0.0017125979 -0.024794035 -0.011372232
0001c0 71 ba 96 3b 4a 46 12 bd 1e 79 36 bc c0 8b 91 bc
       0.0045998623 -0.035711564 -0.011137275 -0.017766833
0001d0 98 80 6e bc 7e c9 0f bb 56 ce ac bb 61 2f c3 bc
       -0.014557026 -0.0021940167 -0.0052736206 -0.023826303
0001e0 72 b4 33 3b 73 21 c5 3c 0b ad 7d bc af 46 24 bd
       0.0027420786 0.024063801 -0.015483151 -0.04010647
0001f0 9b eb ce bc 87 b0 77 bc 9e 33 45 bc a0 80 e9 3b
       -0.02525883 -0.015117771 -0.012036232 0.007125929
000200 39 fc ac bc 66 b1 8d bd 57 25 8a 3c 1e 9e 3a 3d
       -0.021116363 -0.06918602 0.016863508 0.04556095
000210 98 3b 17 3d f3 96 81 bd 0a 2a 70 bd 7b 1e 12 3c
       0.036922067 -0.063276194 -0.05863384 0.0089184
000220 8a 89 1e 3c c9 6a 1f bc 05 68 8f bc ae 2c b3 bc
       0.009676347 -0.009730049 -0.017505655 -0.02187189
000230 de 91 81 bd b8 1d 06 bd ef e3 a8 b9 2b a2 0c 3d
       -0.0632665 -0.032743186 -0.0003221328 0.034334343
000240 e5 60 b2 3b 2a b7 20 3d 20 41 61 bd 24 11 bb bc
       0.0054436796 0.03923718 -0.05499375 -0.022835322
000250 32 dd 9f 3d ff 85 8b 3d 33 ab 0a bd 46 f4 91 bd
       0.078058615 0.06812667 -0.033854675 -0.071266696
000260 ce 35 77 bd 4b 98 77 bd a3 1e 93 3b ac 14 93 3c
       -0.060354047 -0.060447972 0.004489736 0.017954193
000270 3d e2 6a bb e6 d6 b1 3c 53 e1 b0 bd ca 64 84 3c
       -0.0035840415 0.021708917 -0.08636727 0.016161341
000280 43 cd 95 bd ed aa 65 3c ad bb 41 3c f7 24 ff bc
       -0.07314541 0.014017803 0.011824531 -0.031145556
000290 06 8f 9f bd 32 65 07 bd 3a bb 56 bd 9f 43 bb 3c
       -0.077909514 -0.03305549 -0.052424647 0.022859393
0002a0 6a ce 9b bd af b8 66 bd c2 14 ba 3b 53 8d ec bc
       -0.0760773 -0.05632847 0.005678744 -0.028875982
0002b0 a9 c8 b6 bc 54 6f 18 3d 91 71 51 3d a4 ee 86 bd
       -0.02231248 0.037215546 0.051133696 -0.06588486
0002c0 1a 25 7d 3c b7 99 3b bd 17 45 83 3c 4b a4 52 3d
       0.01545074 -0.04580089 0.016024156 0.051426213
0002d0 ed f2 37 3d d2 cb e1 3b d2 93 16 3d 97 29 13 3d
       0.044909406 0.0068907524 0.036762066 0.035928335
0002e0 4a 71 83 bc e5 06 29 3d bd c0 e2 bc 1d 07 ac bc
       -0.016045231 0.04126634 -0.027679795 -0.020999486
0002f0 f8 30 5b 3d ae e5 b9 3c 81 cb 1e 3d 99 f1 46 bd
       0.053513497 0.022692528 0.038768295 -0.04857025
000300 de 24 c3 bd b8 a0 34 3d fb 34 8e bd 82 2b 44 bd
       -0.09528516 0.044098586 -0.06943699 -0.047893055
000310 1d e6 0e bc ac 9b 8c bc 68 09 67 3d 5c 6c 6c bc
       -0.0087218555 -0.017164074 0.056405455 -0.014430132
000320 84 de 84 3c 89 16 4e 3d 22 12 37 bb c2 da 8e 3c
       0.016219385 0.05031446 -0.0027934392 0.017438296
000330 44 54 de 39 c9 e8 52 bd 36 d9 6f 3d 04 55 51 3d
       0.00042405922 -0.051491532 0.058556758 0.051106468
000340 97 48 23 bb ec bc 13 bd b4 af aa bd ca 5c 51 3d
       -0.0024915093 -0.03606884 -0.08334294 0.05111388
000350 20 f0 8c 3c 02 5f 70 3d eb 46 88 3c 87 01 b2 3d
       0.017204344 0.058684357 0.016635379 0.086916976
000360 71 53 8d bc ca 63 2d 3d 8a 7a 4f 3a cf 28 4f 3d
       -0.017251702 0.042331494 0.0007914683 0.050576027
000370 01 02 51 3d 6e 0f 7f bc 76 47 59 bd 9d 6c a3 3c
       0.0510273 -0.015567644 -0.053046666 0.019949252
000380 0c 6c 11 3d ec 6f 53 3d be 86 bb bc f4 b6 a1 3c
       0.035503432 0.05162041 -0.022891399 0.01974056
000390 bf 65 0a 3d bb 2a c1 3c 26 d1 8f 3c 1e 04 04 3d
       0.03378844 0.023579946 0.017555784 0.03223049
0003a0 7e 05 88 3d 53 e3 75 3c 5a 29 62 bd 6a 21 54 3d
       0.066416726 0.015007812 -0.055215217 0.05178968
0003b0 42 68 3d bd 6b ee 1c 3d 9d b2 93 bd 5b 67 44 bd
       -0.046242006 0.03831331 -0.07211802 -0.04795013
0003c0 2c 5c 8c bd 68 47 7a 3d 1a 35 01 3d db fd 57 bd
       -0.06853518 0.061103255 0.031544782 -0.05273233
0003d0 66 c1 80 3d 90 08 00 bc d2 d5 75 3d dd b9 82 3d
       0.06286888 -0.007814541 0.060018368 0.06383107
0003e0 dd 0f 0d bd 0f 62 28 3c 98 ee fc 3c b7 bc 6d 3d
       -0.034438957 0.010277285 0.03087549 0.0580413
0003f0 04 a7 21 3d d4 46 23 3d 6d d6 cc 3c 8e 17 07 bd
       0.03946592 0.03986247 0.02500459 -0.032981448

action_model._discrete_distribution.branches.1.bias f4 [3]
000000 e9 ea d9 bc a6 16 73 3b b6 39 a0 3c
       -0.026601272 0.0037092357 0.019558769

action_model._discrete_distribution.branches.1.weight f4 [3, 128]
000000 3a 3c 94 3c 73 ca c9 3b df 82 8c bc d0 9c 92 3c
       0.018095125 0.006158167 -0.017152248 0.01789704
000010 90 9f 23 3d c9 40 25 bc 9b 4e 74 bc b3 ad 34 bd
       0.039947093 -0.010086247 -0.014911319 -0.044110965
000020 1f 53 be 3c aa 14 ad bc 61 3b a1 3c 8e c9 cf bc
       0.023232995 -0.021128017 0.019681634 -0.025364663
000030 7b d6 8f 3b 38 8f 9a 3c 87 b6 b8 bc 7d 86 02 bc
       0.0043895817 0.01886712 -0.022547973 -0.007966635
000040 d0 3d 57 3d fb 87 fc bc 4d f7 cc 3b 6a f0 74 bd
       0.052549183 -0.03082656 0.0062550665 -0.05979959
000050 d1 fb bc 3c 3d 17 cd 3c b2 e1 ff bc f4 a7 51 3b
       0.023069294 0.025035495 -0.03123555 0.0031990977
000060 d2 61 ee 3a d7 03 b9 bc 0f 90 f7 bc 43 f1 c8 3a
       0.0018187112 -0.022584839 -0.03022006 0.0015330691
000070 c6 c8 5d bc be 8d d6 bc f0 ee b1 3c 0a a0 45 bd
       -0.013536638 -0.026190635 0.02172038 -0.04824833
000080 5a 70 11 3c af d7 18 bc 87 60 2c bd 71 16 1b bc
       0.008876884 -0.009328767 -0.042084243 -0.0094658
000090 7b 8b 3b bc 07 89 30 bd 17 26 29 3d a0 00 aa bc
       -0.011446829 -0.04309943 0.04129609 -0.020752251
0000a0 c1 4c 1a 3c 7c a4 7f bb 95 30 ce bc bb ed 0a 3d
       0.009417714 -0.0039007952 -0.02516965 0.033918124
0000b0 57 af fd bc 32 a3 39 bd fd 07 c6 bc 37 1d 2b bd
       -0.030967398 -0.04532165 -0.024173731 -0.04177591
0000c0 e3 85 45 3c 71 bd 8c bc 61 6f 49 bc 49 59 83 bc
       0.012055847 -0.017180176 -0.012294621 -0.016033785
0000d0 5f 2a da bc b8 9b 67 3d 72 ab ca bb 5f 50 23 3d
       -0.026631532 0.05654499 -0.0061849887 0.03987157
0000e0 f8 14 1b bd c1 eb 04 bd a1 71 28 3c 89 e3 0c 3d
       -0.037861794 -0.032451395 0.0102809975 0.034396682
0000f0 c1 47 ea bc b1 ec 09 bd a0 51 9f bb 76 5f 3f bc
       -0.028598668 -0.033672992 -0.0048620254 -0.0116804745
000100 c6 8f 9a bc 49 70 e6 bc 51 14 6a bc 4d 56 a0 bc
       -0.018867385 -0.028129714 -0.01428707 -0.019572401
000110 44 23 45 3d 0f 6f d3 3c 54 e0 3b bd 96 f9 07 3d
       0.048129335 0.025809793 -0.045868233 0.033197008
000120 c0 bf c8 bc f9 08 01 bd 95 2a d7 bc 33 84 f3 bc
       -0.024505496 -0.031502698 -0.026265422 -0.029726123
000130 2e cc 50 3d 41 71 75 3c 86 05 90 bb 36 96 ae bb
       0.05097597 0.014980615 -0.0043951897 -0.005327965
000140 bb b8 0b bc 5d a2 1b bc 39 82 05 bc c5 e0 0c bd
       -0.00852793 -0.00949916 -0.008148723 -0.034394044
000150 6e ed e2 bc 08 5b 8c bb 96 45 7c 3d 2d ce 01 bb
       -0.027701106 -0.0042833127 0.0615898 -0.0019806728
000160 c4 3b 73 bd 6d 91 ac bc e8 55 ee 3c ea f3 01 3d
       -0.05938317 -0.021065438 0.029093698 0.031726755
000170 8c 9f d1 bc 8b ca 80 bb 8e 32 5b bb 11 ae 9e bc
       -0.025588773 -0.003930395 -0.003344688 -0.01937011
000180 e5 00 15 3c 69 07 b8 bc 0b ee 0b 3d 4e 0f a5 bc
       0.009094452 -0.022464471 0.034162562 -0.0201489
000190 5a 3f 8c 3d b9 92 4b bc 78 2c 65 3d fb 00 ef bb
       0.06848021 -0.012425118 0.05595061 -0.007293818
0001a0 cb 97 c8 b7 5b 9c fc 3c 1b ae e4 bc b4 e5 f4 bc
       -2.3912542e-05 0.030836275 -0.027915051 -0.029894687
0001b0 88 3b 39 3c b5 ce 04 bb 99 ad 56 3c 8a fc fb bb
       0.011305697 -0.0020264809 0.013102912 -0.007690017
0001c0 05 6c 51 bd 6d 4b c0 bc b4 45 30 3c e2 0b b4 3c
       -0.051128406 -0.023473466 0.010758806 0.021978322
0001d0 d5 9e 3a bc 1e a7 f8 bc 1d 06 aa bc f5 34 df bc
       -0.011390408 -0.030353125 -0.020754868 -0.027246932
0001e0 d5 4f 65 3c e7 6d 44 3d 5a 6d 2b bc be d2 1f bd
       0.013996084 0.047956374 -0.010463083 -0.03901934
0001f0 fc 28 17 bd 71 5e 01 bc ea c3 40 bd 25 92 ee bc
       -0.03690432 -0.007896052 -0.04706184 -0.029122422
000200 81 f2 47 3c fe ae 4e 3d 2f ea 59 bd 0a eb 02 bd
       0.0122038135 0.050459854 -0.05320185 -0.031962432
000210 9f 2c 42 bc 3a e6 59 bd e0 f2 01 bd 79 6e cb 3d
       -0.011851459 -0.053198077 -0.031725764 0.0993318
000220 ac 3b 56 bd 46 90 8f bb 49 83 30 bd bc 79 b2 3d
       -0.052303 -0.0043812124 -0.043093953 0.08714625
000230 f5 e4 75 bc 5a c4 31 3d ca 9f 48 bd 6e 4a 38 3d
       -0.015008201 0.043400146 -0.04898051 0.044992857
000240 ee 49 26 bd 7e 80 ce 3b 45 9f 8a 3a 0e 78 b3 3d
       -0.04059785 0.0063019386 0.001057603 0.08763133
000250 41 31 ae bc 37 bf a6 bc 2d cd 6f 3d 5e 69 7f bc
       -0.02126372 -0.02035485 0.05854528 -0.015589086
000260 c6 7a 55 3d 27 b2 86 3b 27 f2 c2 3d f2 2c f2 3c
       0.05211904 0.004110593 0.09518843 0.029562447
000270 7f 46 87 bd 8c c1 53 bd 5b ed 87 3c 55 44 93 3d
       -0.06605243 -0.051698253 0.016592672 0.07190768
000280 29 68 5f bc 79 4d 95 bc 7e 0b a7 bc 9d 5a d4 3c
       -0.013635674 -0.018225418 -0.020391222 0.025922114
000290 e6 76 0d bd a0 ab e8 3d af 98 21 bd cc 82 13 bd
       -0.03453722 0.1136086 -0.03945225 -0.03601341
0002a0 df 74 a0 bd 2a 78 a6 bc d3 1d c3 3c 0b b9 ac 3b
       -0.078347914 -0.02032097 0.023817932 0.0052710823
0002b0 a8 d8 f9 3d 33 01 c6 3d 3c bb ac 3c ca 1d ac 3d
       0.12199527 0.096681975 0.021085374 0.08404119
0002c0 6b 8f 72 3d 07 fd 01 3d b4 fa da bc dc a4 38 3d
       0.059218805 0.031735446 -0.026730873 0.045079097
0002d0 cd 13 5e bc 71 76 4e bd 40 40 01 bd 8a 7d 1b 3d
       -0.013554526 -0.050405923 -0.031555414 0.03796152
0002e0 ba 25 bc 3d 5f e5 7b bd 80 9b e5 3c 4f 3d 1c bd
       0.09186883 -0.061498042 0.02802825 -0.038144406
0002f0 82 a6 03 bd 50 6f 38 bd 7c a6 5a bd 01 ba f1 bc
       -0.032141216 -0.04502803 -0.053381428 -0.029507639
000300 ae 7e 6d 3d 9b d7 b3 3d 90 8a 96 3c 65 bc 32 bd
       0.05798214 0.08781358 0.018376619 -0.0436367
000310 64 25 c7 bc b1 20 ae bc d1 cc 4c 39 64 2d 46 3b
       -0.024309821 -0.021255823 0.00019531256 0.0030239457
000320 6b 86 92 3c 99 7e 6d bc 24 c9 b8 3d a0 86 06 bd
       0.017886361 -0.014495515 0.090227395 -0.032843232
000330 7b a4 93 bd 76 b4 f0 3c e3 fd ef 3c ab 8c 35 3d
       -0.072091065 0.029382925 0.029295867 0.044323605
000340 e2 aa 87 bc 8c d5 a0 3c 89 c6 c9 3c 60 95 81 3c
       -0.016560975 0.019633077 0.024630802 0.015818298
000350 fb 47 51 bc f9 5e 9f bd ad 52 ae bc 6c 3b 5d bd
       -0.012773509 -0.077817865 -0.021279657 -0.054011747
000360 ee df a4 3d 6b 4d b7 3c 9f 9b 98 3b 8e c9 6a bc
       0.08050524 0.022375783 0.0046572234 -0.014330281
000370 cf 2e 72 bd 93 9c 17 3d b1 47 0b bd f1 fd 76 ba
       -0.05912667 0.037014555 -0.034003917 -0.00094219955
000380 11 39 99 3c 0b f2 47 3d bd 1b 4d bd 21 6e c7 3d
       0.01870397 0.048814815 -0.05007528 0.09737802
000390 85 40 96 bd c0 9b 4d 3d 38 94 5d bd 09 fc 28 bc
       -0.07336525 0.050197363 -0.05409643 -0.010313996
0003a0 4b f8 63 bd 56 56 7e bd 45 57 c4 bc 89 ed c9 bc
       -0.055656713 -0.062094055 -0.023967395 -0.024649398
0003b0 4e d1 a3 bd 85 b8 07 3d d6 7d 44 bd 15 2a 01 3c
       -0.07998906 0.033134956 -0.04797157 0.007883568
0003c0 79 8d a7 3d a4 d6 5b ba 85 81 e4 3c 62 9e 7f bb
       0.08181281 -0.0008386171 0.027893791 -0.0039004316
0003d0 8d 89 8b 3c 38 0f a1 3d 55 5e d8 bc 16 0d 0d 3d
       0.017033363 0.07864231 -0.026412169 0.034436308
0003e0 40 2b 4f bc 64 23 bc bc 1e a5 df bb ef bb e6 3c
       -0.012644589 -0.022966094 -0.0068251034 0.028165786
0003f0 cb 47 85 3c 31 ef f7 bc 55 8d aa 3d 8b 54 9b 3d
       0.016269585 -0.030265423 0.08327738 0.07584485

action_model._discrete_distribution.branches.2.bias f4 [2]
000000 98 79 33 bc 9c 79 33 3c
       -0.010954283 0.010954287

action_model._discrete_distribution.branches.2.weight f4 [2, 128]
000000 b8 e4 ed 3c fc ce 75 3b 65 49 1b bd f4 d2 0f bd
       0.029039726 0.0037507406 -0.03791179 -0.03511329
000010 d3 fd f7 3a 69 2f 75 bb c9 92 99 b9 cc 8e a1 3b
       0.001892025 -0.0037412292 -0.00029291798 0.004930353
000020 02 ed 0a bc ee f8 ba bc 2f 6f 0c ba 77 24 b7 3b
       -0.008479359 -0.022823777 -0.0005357144 0.0055890637
000030 57 f9 7b 3c 59 8e 02 3d 3b 39 4d bc be 01 99 3c
       0.0153792715 0.031874035 -0.012525852 0.018677589
000040 19 6a 94 3a 3a f8 be bc 2d bd 95 3c c5 b4 20 3c
       0.0011323123 -0.023311723 0.018278683 0.009808724
000050 1f c6 ce 3a 23 5d 18 3b c6 1c e9 3b 49 88 cd 3c
       0.0015775597 0.0023248873 0.0071140258 0.0250894
000060 f6 a4 74 bb f8 35 ce bb d5 15 17 3c 36 1e b4 3c
       -0.003732977 -0.0062930547 0.009221514 0.021987062
000070 f7 a0 2b 3b f2 de 7a bc 54 96 22 3c 37 d1 06 bc
       0.0026188472 -0.015311943 0.009923536 -0.008228592
000080 b4 5b e6 3c 68 91 a9 bc b0 9a 70 bc e9 00 fb bb
       0.0281199 -0.020699218 -0.014685318 -0.0076600206
000090 d9 e1 d6 3c bb d4 92 3c d6 74 22 3c db 86 c7 bc
       0.02623074 0.017923703 0.009915551 -0.024356296
0000a0 8e 2b 88 3c dc 99 1d 3c be 3d 76 3b 34 06 9f 3c
       0.016622331 0.009619202 0.0037573422 0.019412138
0000b0 4d 65 98 3c 5b 32 0c 3d 4d 53 db ba 7e 92 c2 bb
       0.018602991 0.03422771 -0.00167332 -0.0059378734
0000c0 85 1a 08 3d 84 88 d6 3b 69 8b 08 3b 20 d4 ad 3b
       0.033228416 0.0065470356 0.0020835048 0.0053048283
0000d0 1c 80 ca bb b6 f2 76 3c b0 05 92 bc 52 12 c7 3b
       -0.0061798226 0.015072515 -0.017824978 0.006075182
0000e0 51 ec 32 3c 6e 8b 45 bc e7 91 ac 3c 5b 9a 16 3d
       0.0109206 -0.012057168 0.021065665 0.0367683
0000f0 fd 00 73 bc 5e 78 6c bc 0f d4 8e 3c fc fa 67 3c
       -0.014831779 -0.014432995 0.017435102 0.01415896
000100 a2 8a 96 3c c6 cc a0 3b 27 70 02 3c 85 f0 4f bc
       0.018376652 0.0049072234 0.0079613095 -0.012691622
000110 11 1d cd 3c 0f ee f8 38 56 1b 95 bc fd 27 a0 3c
       0.025038274 0.000118699034 -0.018201511 0.019550318
000120 fb bc 9e 3c 51 54 18 bc 07 5d aa 3c be 75 c7 bb
       0.019377222 -0.009297446 0.020796312 -0.006087034
000130 1f 8d 80 bc 21 ea 54 3c e8 3f 34 3c c2 c3 30 3c
       -0.015692292 0.012995274 0.011001565 0.01078886
000140 0d 4d fe bb 0a 92 84 3b 1e a1 e1 3b f3 79 9d bc
       -0.00776065 0.0040457295 0.0068856617 -0.019223189
000150 92 48 4f bc e9 93 8e bc 1c 4c db 3c f9 e9 d9 bb
       -0.012651579 -0.017404513 0.02676969 -0.006650206
000160 fa f2 59 bc 80 0a e3 bc 4f 71 1a 3c 00 60 ac 3c
       -0.013302559 -0.027714968 0.009426429 0.02104187
000170 29 e3 d6 bc a0 39 ee 3c d7 06 28 3c 3b 02 6a b9
       -0.026231365 0.029080212 0.010255537 -0.0002231681
000180 83 cf 0c ba c9 cf 59 b6 7e 75 01 3d c0 4e 00 3d
       -0.0005371498 -3.2456467e-06 0.03160619 0.0313251
000190 fc 6f 27 bc a8 b0 b1 3c 7c 35 04 3c 43 c2 bd bc
       -0.01021957 0.021690682 0.008069392 -0.02316392
0001a0 ba 6e 05 3c 4e a3 a3 bc b5 9b 9f bc 89 04 e6 bc
       0.008144075 -0.01997533 -0.019483427 -0.028078334
0001b0 bb 81 c7 3c 68 3b cb 3c 1f d0 d6 3c ac 55 cd 3b
       0.024353852 0.0248086 0.026222287 0.0062663164
0001c0 d0 61 02 bc 26 1e 60 3c e8 b6 50 3c 90 47 ea ba
       -0.007957891 0.013679063 0.012738921 -0.001787411
0001d0 83 a2 37 3c 58 47 0c 3d 75 a4 1e bd 7e e7 59 bb
       0.011208179 0.034247726 -0.038731057 -0.0033249552
0001e0 79 da b7 3c 59 67 83 3c b3 3f 0b bd f6 7f 8f 3c
       0.022443043 0.016040491 -0.033996295 0.017517071
0001f0 96 b8 c8 bb 0c 76 ac bc 87 cc 75 ba 48 22 95 3b
       -0.00612552 -0.021052383 -0.0009376485 0.004551206
000200 47 28 a8 bc 9d d9 40 bc 0a ba 42 3c 98 1a 82 3c
       -0.020527018 -0.011770633 0.0118851755 0.015881822
000210 8e 2c 41 bc 7d c2 0f bc ac 11 04 bc b3 aa 9d bc
       -0.011790408 -0.008774397 -0.008060854 -0.019246435
000220 64 1d 33 3c 2f 75 6a 3c 65 83 8c 3c 04 c2 84 bc
       0.0109323 0.014310165 0.017152498 -0.016205795
000230 43 81 22 bc 52 48 23 bd 14 ce c0 3c 69 c5 81 bc
       -0.009918514 -0.039863892 0.023535766 -0.015841203
000240 ae ec 32 3c ae 63 fa 3c 4e ac 60 3b 8d 98 1c bb
       0.010920687 0.03056511 0.003428239 -0.0023894638
000250 e8 e5 1b bb 8f 41 4a 3a 52 3c ef 3b 27 92 3c ba
       -0.0023788158 0.00077154575 0.007300892 -0.0007193409
000260 bf d9 f3 3b 74 9d 9c 3b 96 29 87 bc 4f cf e0 bc
       0.007441729 0.004779512 -0.016499322 -0.027442602
000270 51 c6 f1 3c cd c1 6c 3b d7 21 6a bc 02 7a bb 3c
       0.02951351 0.0036126256 -0.014290295 0.022885326
000280 28 0a 9c bc ec 3c 00 3d aa ec 91 3b f7 19 ae 3a
       -0.019047812 0.0313081 0.0044532614 0.0013282885
000290 e1 09 f5 3b 39 ff c8 bc 82 52 90 bc d8 a1 14 3c
       0.0074779843 -0.024535762 -0.017617468 0.00907179
0002a0 82 0f b4 bc 2d ef b4 bc f6 70 75 3c 50 7a f7 bc
       -0.021980051 -0.022086704 0.014980545 -0.03020969
0002b0 27 6c 16 bd 46 f7 c8 bc e0 d3 0d bc 7b bf 62 3b
       -0.036724236 -0.024531972 -0.008656472 0.0034598995
0002c0 bf fe c8 bb ea e9 3c bb 3c e2 4b 3c 48 4e 34 3b
       -0.0061338837 -0.0028825947 0.012444075 0.002751248
0002d0 39 cf c3 3c 59 ea 93 bc 50 b0 a2 3c c9 2c bc bc
       0.023902522 -0.018056082 0.019859463 -0.022970574
0002e0 50 31 c3 bc 65 fe c6 3c 1b ef 9f bc b4 d2 89 bc
       -0.023827225 0.024291227 -0.019523194 -0.016824104
0002f0 32 21 db 3c a5 e7 c4 3c d6 39 6c bc 4c 9e 0d bb
       0.026749227 0.024036238 -0.014418086 -0.0021609245
000300 ec 9e 9c bb 79 fe e4 bc 7f 0f bd bb 57 4b 06 bc
       -0.004779687 -0.027953373 -0.0057696695 -0.008196673
000310 b7 2b 95 bc c3 a4 52 bb 65 76 8e 3c 46 59 04 bd
       -0.018209321 -0.0032141663 0.01739044 -0.0323117
000320 d5 cf e4 bb ee f8 ad 3c 15 f0 ca bc af 61 65 3c
       -0.0069827833 0.021236863 -0.024772683 0.01400034
000330 06 38 95 3b 9d 4c 7c bc 5c 1f 96 bb 98 80 ef bc
       0.0045537977 -0.015399125 -0.004581375 -0.029236123
000340 d4 c4 5c 3b 7d 03 f5 bb c0 7a 24 bc 67 7c 82 3c
       0.0033686655 -0.0074772225 -0.0100390315 0.01592846
000350 80 49 4c 3c b2 45 c0 3c d8 fc da bb d3 74 dd 3a
       0.012468696 0.023470733 -0.0066829734 0.0016895778
000360 a4 07 a9 bb 0e b1 fe 3b 1d 37 bc bc 01 09 c3 bc
       -0.0051583815 0.0077725714 -0.022975499 -0.023808004
000370 24 54 1c 3d bc ac fb bc 22 fe e8 3b f8 5b 92 3c
       0.03816618 -0.030722015 0.007110373 0.01786612
000380 df 47 08 3c 56 38 95 3b 97 79 8b bc 68 91 b3 bc
       0.008317917 0.004553835 -0.017025752 -0.021919921
000390 ff cc 9a 3c 68 90 0e 3c 67 93 34 bc 88 6f 2c 3c
       0.018896578 0.008701421 -0.011021472 0.010524638
0003a0 60 8c 2d 3c 1b 6a 5e 3c f3 1d 15 3b 4d dc 02 3d
       0.01059255 0.013575102 0.0022753447 0.031948376
0003b0 8e ea 6c bc 3c 2b 1c bd 86 58 4d bc 8b 29 69 bc
       -0.014460219 -0.03812717 -0.012533313 -0.014231096
0003c0 f4 0b 3a 3c 24 75 b9 3b 16 74 63 bc e3 48 b0 bc
       0.011355389 0.005659716 -0.0138826575 -0.02151913
0003d0 fd 02 ef bc 89 12 a7 bc f9 f1 a7 3c dc e6 ab 3c
       -0.02917623 -0.02039458 0.020501124 0.020984106
0003e0 14 ff 18 bc 5c 26 be bb b9 f4 cd 3c a8 e6 3a bc
       -0.009338159 -0.0058029126 0.025141107 -0.011407532
0003f0 5d 64 ca 3c cf d6 d7 3c 94 c1 1a bb 90 93 99 bc
       0.02470606 0.026347546 -0.0023613917 -0.018747121

discrete_action_output_shape f4 [1, 3]
000000 00 00 40 40 00 00 40 40 00 00 00 40
       3.0 3.0 2.0

network_body._body_endoder.seq_layers.0.bias f4 [128]
000000 26 82 db 3d be 3b bd 3c 8a 36 cb 3c 95 b4 01 3d
       0.10718183 0.023099776 0.02480628 0.031666357
000010 6d 27 c2 3c f5 a1 e6 3c 0a 93 97 bb 6a b3 c3 3b
       0.02370044 0.028153399 -0.0046256827 0.0059723156
000020 83 9b 36 3c 7a f2 04 3c 3b a9 40 bc 74 04 97 3c
       0.011145475 0.008114452 -0.011759098 0.01843474
000030 e0 46 2e 3d a6 f6 97 3b 79 1b 08 3d 86 20 a9 3c
       0.04254806 0.004637557 0.033229325 0.020645391
000040 dc 58 15 3c c3 b2 9b 3b ae ee a3 3b 63 ae f6 3a
       0.009115424 0.0047515347 0.005002818 0.0018820282
000050 26 8e a5 3b 0e 2a fd 3a 0e b8 37 ba 39 8b 95 bc
       0.005052346 0.0019314901 -0.0007008322 -0.018254863
000060 26 d3 8b ba 4b 9f 88 bb de 2f 6d 3c b5 2a a3 3d
       -0.0010667786 -0.00416938 0.014476744 0.0796713
000070 d0 00 0d 3d 57 c6 13 3c db 8a 97 3b 5e b1 e2 3c
       0.034424603 0.009019456 0.004624707 0.027672466
000080 3e 0f 13 3d 22 39 0a 3d 77 82 ff 3c 96 5b 43 3d
       0.035903208 0.033745892 0.03119014 0.047694765
000090 7d 42 5a bc 52 22 39 3d 83 ff fb bb 73 ef 6c 3c
       -0.013321516 0.045198746 -0.0076903715 0.014461386
0000a0 99 4d 2e 3d 66 dd 28 bd e8 bb 44 3d 6a 6d 8b 3d
       0.04255447 -0.041226767 0.048030764 0.068079785
0000b0 79 ef 90 ba c9 28 2f 3d 3f dc c3 bb ea 9d 03 3d
       -0.0011057697 0.042763505 -0.005977183 0.03213302
0000c0 df 6f 64 bd 3f 4d 85 bc 81 95 90 3d fa 86 86 3c
       -0.05577075 -0.016272185 0.070597656 0.016421784
0000d0 b4 a4 5d bb f8 a5 0a 3d c8 6c b8 3c 0e 76 e1 3c
       -0.0033820095 0.033849686 0.022512808 0.027522113
0000e0 3a 6c 43 bc 1c 60 ac 3d cb ed 07 3c 4c 52 c4 3c
       -0.011927659 0.08416769 0.00829644 0.023965023
0000f0 19 41 8a b9 2b 45 87 3c eb f5 51 3b 53 fe dd bb
       -0.00026369913 0.016512474 0.0032037448 -0.0067747026
000100 a2 73 38 ba 88 d8 07 bd a6 fe 10 3b 24 bd d8 bb
       -0.00070362736 -0.033165485 0.0022124439 -0.006614344
000110 98 82 7b bb be 2a a1 3d ca e3 8f 3d 08 7f 7e ba
       -0.00383774 0.078694806 0.07025869 -0.000970826
000120 3a 01 a1 3c ac b6 d8 3c 5c 91 ef 3c 2a 03 96 3c
       0.019653905 0.026454292 0.029244117 0.018312056
000130 4b a0 3c 3c fa 29 1a 3a a7 b1 2b 3c 82 37 0f 3d
       0.011512826 0.0005880889 0.010479367 0.034965046
000140 d7 1d ba bc cf a2 b8 3c a0 ff 13 bc 33 61 be 3a
       -0.022719307 0.02253857 -0.009033114 0.0014524817
000150 3d 7f 54 3d 17 19 1b bd 3f 37 31 3d 2f 92 84 3b
       0.051879156 -0.037865724 0.043265577 0.0040457468
000160 5e 22 92 3d ca e3 e9 3c 16 3c 21 3d 4c 0d e4 3c
       0.07135461 0.028551001 0.039363943 0.027838372
000170 62 22 09 3c 07 00 27 3d a8 45 c8 bc 48 0b 5a bc
       0.008370014 0.04077151 -0.024447277 -0.013308354
000180 fb ac 8d 3c c6 dc 00 bd 20 93 1f 3c ab f2 07 3d
       0.017294398 -0.031460546 0.009739667 0.03319041
000190 49 bd bf 3d 11 8f 01 3d 8b 85 e1 3b 3e 92 36 3d
       0.09362275 0.03163058 0.0068823746 0.04457306
0001a0 d6 d1 5d 3d 6d 0f 4e 3d da 9a ad bc 18 30 5d 3c
       0.054155193 0.05030768 -0.021192003 0.013500236
0001b0 34 8d 87 bc 57 e5 59 3d 55 1a 6a 3b 0a e8 30 3d
       -0.016546823 0.05319723 0.0035721262 0.04319004
0001c0 d6 b6 1c 3d 5c dd 24 3c 67 25 35 3c ac 66 15 bc
       0.038260303 0.010062542 0.011056281 -0.009118717
0001d0 79 ce 30 3d 92 c3 66 3d 11 c0 5f bb 80 73 d0 3b
       0.043165658 0.056338854 -0.003414158 0.006361425
0001e0 7d 92 88 3d 9f 69 57 3b 26 6a 04 3d 4d 2e 8a 3d
       0.066685654 0.0032869352 0.032327794 0.067471124
0001f0 d0 3d 9a 3b 5b 3e 73 3d d0 5b 02 3b 9f 58 88 3d
       0.0047070757 0.05938564 0.001989115 0.06657528

network_body._body_endoder.seq_layers.0.weight f4 [128, 6]
000000 38 4d 08 bf be 26 4f be 1e 63 35 3e a4 3b d7 be
       -0.53242826 -0.20229623 0.17713591 -0.4203769
000010 6f 45 4b be 3f e0 48 3f d4 5d 58 3e 8a e4 16 be
       -0.19850706 0.7846717 0.21129543 -0.14735618
000020 6f ff c8 be 8c df cd 3e 28 15 97 be f6 e4 84 bc
       -0.3925738 0.40209615 -0.29508328 -0.016222458
000030 0e 22 81 3e 91 20 fc 3e 08 17 2f bf 6f b6 3b 3e
       0.25221294 0.49243596 -0.6839452 0.18331312
000040 e7 3f 16 bf d5 4c db 3c ac 52 5f be 94 e7 84 bf
       -0.5869126 0.026770035 -0.2180888 -1.0383172
000050 e2 30 af 3e 09 ee 24 be 6c da a1 3d 9d b1 8d be
       0.34216982 -0.16106428 0.07902989 -0.2767457
000060 60 5d 25 3f 26 f3 00 3e ec f8 12 3c 5d ed 1d bf
       0.64595604 0.12592754 0.00897048 -0.6169031
000070 e3 1e 61 3e f0 0c 1f be 37 15 a4 bd 02 b4 3e bd
       0.21984439 -0.15532279 -0.08011859 -0.046558388
000080 ba 24 fc 3e a7 e1 f3 bd 27 6c 9e be 68 e9 41 3f
       0.4924677 -0.11908274 -0.3094189 0.75746775
000090 2c 10 f0 3e 5b 4e 4a bf bb 91 15 be 6b 89 6c bd
       0.46887338 -0.7902581 -0.14606373 -0.05774824
0000a0 b5 9e 83 3e 09 f9 a1 be b9 79 1d 3f 2f 8d 41 bf
       0.2570702 -0.3163531 0.6151386 -0.75606054
0000b0 c2 b4 9a 3d e2 54 96 3e c0 59 38 bf f5 f3 81 3d
       0.07554008 0.29361635 -0.7201195 0.06345359
0000c0 3c 05 3b 3f 00 2d 8a bd f5 b8 b1 bd f9 77 9e be
       0.7305486 -0.06746864 -0.08677856 -0.30950907
0000d0 33 ba 8c 3e 23 30 30 3f 86 e8 58 bd bb ab c2 3e
       0.2748581 0.6882345 -0.052956127 0.38021645
0000e0 e4 32 94 3e cd cf 11 be 06 43 de be 06 f1 f0 3d
       0.28945076 -0.14239426 -0.4341051 0.117647216
0000f0 22 7a b8 3c 9f c8 21 bf 07 77 bc 3d fd 76 a8 3e
       0.022519175 -0.6319675 0.0920239 0.3290328
000100 28 ff 2e 3f 94 80 b4 3d 08 3d 3f be b8 1c 11 bf
       0.6835809 0.08813587 -0.18675625 -0.56684446
000110 e7 a3 0b bd a1 81 cf 3d a0 fa 78 bc 5a 51 08 3f
       -0.034091856 0.101321466 -0.015196472 0.5324913
000120 03 8b f7 be 5a fc 07 bf 6c 3b 87 3d d4 54 e7 be
       -0.48348245 -0.5311943 0.06603131 -0.45181906
000130 b8 36 0e be d1 90 60 3f ac 17 07 3f 30 76 c8 3e
       -0.13888061 0.8772097 0.52770495 0.3915267
000140 be 26 30 3e 54 31 a9 be 76 7b f5 3d 45 29 21 bf
       0.17202279 -0.33045447 0.11986439 -0.629536
000150 ea b8 ac 3e 33 5c 91 3d 10 4d f8 bd 21 71 d2 3e
       0.33734828 0.07097664 -0.121240735 0.41101936
000160 51 4d 25 3f 1a 37 da 3d 9f 43 a6 be 3e 59 60 bf
       0.645711 0.10655041 -0.32473466 -0.8763617
000170 c2 17 14 bf 25 03 00 bf 9a af 63 3e 31 f8 5a be
       -0.5784875 -0.500048 0.22234955 -0.2138374
000180 23 f4 d7 be 60 8b 81 bf 4c be 99 be 4a a4 b1 be
       -0.4217845 -1.0120659 -0.30027997 -0.34695655
000190 60 f3 80 3e 7b 69 67 be 38 0d 63 be 96 42 ec 3e
       0.2518568 -0.22598831 -0.22173011 0.4614455
0001a0 f5 35 e4 3e 13 01 33 bd 6a e3 63 bb 1e 37 14 bf
       0.44572416 -0.043702196 -0.0034773 -0.578966
0001b0 61 a3 b7 3e 66 a4 2d bf 0c 50 bb be ec 4b f6 3e
       0.35866836 -0.6782898 -0.36584508 0.481048
0001c0 9d 8f 79 3d 83 c8 85 3c 74 51 2c 3e f1 ef ed be
       0.060927976 0.016330963 0.16827947 -0.46472123
0001d0 71 81 92 be 4d 13 a4 3e 04 92 9a 3e 80 b4 26 bf
       -0.2861438 0.32045975 0.30189526 -0.6511917
0001e0 1f 77 07 3f 1f 06 e8 3e 50 32 88 3d 4a bb b0 bc
       0.5291614 0.4531717 0.06650221 -0.021573681
0001f0 2b 81 4d 3e 43 3c 0c be 68 68 e3 3e d5 f0 28 3f
       0.20068805 -0.13694863 0.44415593 0.6599248
000200 ce ee d0 3d a6 f7 f3 be a3 99 47 bf 67 5f 16 3e
       0.102017984 -0.47649878 -0.77968806 0.1468483
000210 7a a9 3f be 46 9a 3e 3e 7d c4 2c be 67 b3 1c 3e
       -0.18716994 0.18613538 -0.1687183 0.15302812
000220 e8 6f be be 4a fd 78 be 08 46 10 3f 13 6a 4b 3f
       -0.37194753 -0.24315372 0.5635686 0.7945873
000230 7c 9e a0 bd 0e ee d4 bc 52 ae 5c bf 9a 3e ee be
       -0.078427285 -0.02599242 -0.8620349 -0.46532136
000240 01 54 30 bf 95 80 91 be 92 e3 38 3f 6f ca b4 bf
       -0.6887818 -0.28418413 0.72222245 -1.4124278
000250 4d 0e ae 3e bf 6f fd be 39 32 ba 3e 2a 05 84 be
       0.33995286 -0.49499318 0.36366442 -0.2578519
000260 96 c2 c9 be f5 10 42 3e 72 6e 3d be eb 2c bc 3e
       -0.3940627 0.18951781 -0.18499163 0.3675302
000270 60 2f 8d 3d a0 98 21 3f a3 29 a7 bd ef c7 95 3e
       0.06893802 0.6312351 -0.081622384 0.292541
000280 0e f8 3b 3e 19 3d 67 3d 84 fe 79 be 85 54 0d 3f
       0.18356344 0.05645475 -0.24413496 0.5520709
000290 8c a1 37 be 9a c7 d9 be 3e ff c4 3e 53 80 a4 be
       -0.17932719 -0.42535096 0.38475984 -0.32129154
0002a0 74 b6 99 be 51 3b fd 3e 20 9a a4 bd 06 76 cb 3e
       -0.30022013 0.49459317 -0.080372095 0.39738482
0002b0 91 76 ef 3e 51 89 db be 60 31 0c be 7e ef 32 bf
       0.46770146 -0.42878202 -0.1369071 -0.69896686
0002c0 cb 6c 87 bd 06 85 0b 3f 36 19 1d 3e 20 37 a7 be
       -0.066125475 0.5449985 0.15341648 -0.32659245
0002d0 9d 9b 8e 3e 28 ee 08 3f c5 9d 55 3f 0a 3d 98 be
       0.278531 0.534884 0.8344386 -0.2973407
0002e0 45 e3 de bc 0a a3 a4 3e b1 cd 8c 3e 5c 92 98 be
       -0.02720798 0.3215564 0.2750068 -0.29799163
0002f0 34 ea 32 bf c6 25 8b 3e cc 28 17 3e 45 f9 ee bd
       -0.69888616 0.27177256 0.14761657 -0.11668638
000300 d6 ad a0 bd 2a 90 11 3f fc 5c 84 3e 3f d3 63 be
       -0.078456566 0.568606 0.2585219 -0.22248553
000310 a0 7c ba 3d 13 05 a1 be 63 b1 c8 3d c3 16 7d be
       0.091058016 -0.31449184 0.09799459 -0.24715714
000320 ca eb fe 3d 99 84 b0 be b0 b2 26 be de 92 89 3e
       0.12447317 -0.34476164 -0.16279101 0.26869863
000330 ef 14 53 be f2 e2 a7 bd 19 74 e4 be 70 5a 12 bf
       -0.20613454 -0.08197583 -0.44619825 -0.57169247
000340 3c df ab be f0 04 58 be df 5b 38 bf 3f 1c 33 3f
       -0.33568752 -0.21095634 -0.72015184 0.69964975
000350 eb ee a6 bd 47 5d a2 3e 09 10 14 3f 38 a3 a0 be
       -0.08151039 0.3171179 0.5783697 -0.31374526
000360 bb 9c 4b 3f 53 00 0e bf 19 d9 43 3d 98 41 66 bf
       0.79536027 -0.55469245 0.047814462 -0.8994384
000370 23 7e fc 3d a4 0e 87 bd 40 1d 48 be 65 7f b4 3e
       0.12328746 -0.06594589 -0.19542408 0.35253444
000380 cd 6b b4 bd 14 41 1c bf e9 29 11 3e 37 23 0e bd
       -0.08809624 -0.610368 0.14176144 -0.034701552
000390 56 bd db 3e 20 eb 39 bf 95 4c 49 3f 4f ed 0d 3f
       0.4291789 -0.726244 0.7863248 0.5544023
0003a0 c0 31 e2 bd 48 55 2e 3f 03 9f 1d 3d ee 1a e2 3e
       -0.11044645 0.6809888 0.038481724 0.4416117
0003b0 d3 31 01 bf 10 93 db 3e c4 b3 0b 3e 01 d3 6b 3e
       -0.5046665 0.42885637 0.13642794 0.2302971
0003c0 c9 df 6b be c0 e0 59 3e e6 b4 5a bf 72 bb b2 3d
       -0.23034586 0.21277142 -0.8543228 0.087271586
0003d0 01 1a f1 3c e6 12 a5 be b9 04 33 3f 67 56 6e bd
       0.029431345 -0.3224098 0.6992908 -0.05818787
0003e0 b6 09 7c 3e d7 a8 63 3e dc 42 de bd 10 c2 0c bf
       0.2461308 0.22232376 -0.10852596 -0.54983616
0003f0 ab 90 e4 bb d9 96 8c 3f 4b d4 4f bf 28 04 5a bd
       -0.0069752536 1.0983535 -0.8118331 -0.05322662

network_body._body_endoder.seq_layers.2.bias f4 [128]
000000 3c 45 29 3c 6d 9d 39 3d d4 e7 96 3b e0 95 93 3a
       0.010331448 0.04531615 0.004605273 0.0011259876
000010 69 d4 80 3c b4 1c 0b 3d a4 16 15 3d c8 48 f3 3c
       0.015726285 0.03396292 0.036398545 0.02969779
000020 9f e4 6c bc 5e 56 e7 bb c9 3c 1a 3c a5 2a 00 3d
       -0.014458804 -0.0070598563 0.009413906 0.03129067
000030 59 b7 19 3d 48 5c 90 3c fb 17 71 3c 9b 95 0f 3d
       0.03752837 0.017622128 0.01471519 0.035054784
000040 a0 ad 6a 3c f4 a8 19 bc 36 91 d1 3c 3e 9e 26 3d
       0.014323622 -0.0093786605 0.025581937 0.040678255
000050 29 f6 04 bb 85 8e 7e b9 ca ff df 3b c4 75 14 3d
       -0.0020288324 -0.0002427642 0.0068359124 0.036245123
000060 94 26 04 3d 68 09 c9 3c a2 1c 98 bb b2 19 72 3c
       0.032263353 0.024540618 -0.004642085 0.014776634
000070 7a e9 5d 3d 82 bb b9 3c 5d 9c 56 3d 4f e5 1e 3c
       0.05417774 0.022672419 0.052395213 0.009698226
000080 c2 17 75 3d 65 62 0e bb cb 7d 73 3c f0 93 48 3b
       0.05983711 -0.0021726128 0.014861534 0.0030605756
000090 c0 29 05 3d 03 ea 15 3d 32 ee 60 3c 35 aa 39 3c
       0.03251052 0.036600124 0.013728665 0.011332084
0000a0 8e 7f 94 3d 89 a8 09 3d ea 10 3c 3c 32 5a 0d 3d
       0.072508916 0.033607993 0.011478642 0.034509845
0000b0 3d 9e 5a 3d be ac d8 3c 89 08 5d bc 1f 55 2b 3d
       0.053373564 0.026449557 -0.0134908045 0.041829225
0000c0 e8 92 81 3c 36 0d 7b 3c 97 a3 30 ba bf 38 b0 b9
       0.01581712 0.015322974 -0.0006738244 -0.00033611615
0000d0 6f 8c d1 3b 40 c8 4b 3a 9e 2c ec 3b 84 57 36 bc
       0.006394915 0.0007773675 0.007207467 -0.011129264
0000e0 89 14 67 3d 8e 5e df 3c 12 94 81 3c 4c 4d 3b bb
       0.05641607 0.027266767 0.015817676 -0.0028580008
0000f0 99 19 86 3c a6 72 38 3c c4 0c da ba e9 69 ed 3c
       0.016369628 0.011257803 -0.0016635885 0.028981166
000100 68 03 30 3d 45 e6 24 3d 99 b1 f7 3c 88 9c dd 3c
       0.042972 0.040258665 0.030236052 0.027052179
000110 62 d2 fa bb 30 a7 84 bb 48 b4 cc 3a 67 14 f6 3a
       -0.007654474 -0.0040482506 0.0015617693 0.0018774391
000120 93 dd a2 3c 56 76 54 ba e7 f3 26 3d 45 ad aa 3b
       0.019881045 -0.00081047916 0.040759947 0.0052086436
000130 f8 d2 92 ba 6d 7b 02 3d a1 4f 10 bb 7e ae b4 3c
       -0.001120179 0.03185599 -0.0022020119 0.02205586
000140 73 3e 50 bc 74 53 68 3b 87 04 3b 3d d4 a7 f3 38
       -0.012710202 0.0035450133 0.045658614 0.000116184034
000150 82 ff 38 bb 93 35 a9 3c a3 d4 62 bb 82 51 51 3c
       -0.0028228466 0.020655429 -0.0034611605 0.012775781
000160 19 73 f2 3c 29 8c 62 3a f8 d5 e6 3c 3d 49 8e 3c
       0.029595898 0.00086421013 0.0281782 0.017368907
000170 60 fc f4 3c fa 41 e7 3c e9 5b 9c 3c 41 3b 99 bc
       0.029905498 0.028229702 0.019086795 -0.018705012
000180 7b 13 bf bc d3 a1 d7 3b 70 98 81 3d 53 13 9a 3c
       -0.023324719 0.0065805702 0.06327903 0.018808043
000190 00 42 61 bc 49 13 33 bc 23 61 da 3b 5a 22 b9 bb
       -0.013748646 -0.010929891 0.0066644116 -0.005649847
0001a0 62 e3 d6 3c e3 eb 50 bc 13 c8 c9 3c fe b5 fd 3b
       0.026231471 -0.012751552 0.024631536 0.0077426424
0001b0 ea a3 bb 3c 06 96 d4 3c 53 9a b6 3c 56 72 b5 3c
       0.022905309 0.025950443 0.022290384 0.022149246
0001c0 29 9d 0e 3d 0c 95 8f 3c 22 27 4e 3c 80 fe d9 3c
       0.03481785 0.017527126 0.012582572 0.026610613
0001d0 60 66 e5 3c 71 5c cf 3c 8b b4 d4 3b 6d d8 25 3b
       0.028002918 0.025312634 0.006491249 0.0025306002
0001e0 92 84 06 3c 47 78 e0 bc e6 22 86 bb 63 5b 8b 3c
       0.008210318 -0.027401103 -0.0040935157 0.01701135
0001f0 64 59 0a bc df ac c6 3b 57 19 19 3c 4d e8 90 3c
       -0.008444164 0.0060630883 0.00934442 0.017688895

network_body._body_endoder.seq_layers.2.weight f4 [128, 128]
000000 7b cd a6 bd 9a ef 19 3e 9c f3 da bc 0d 51 14 3e
       -0.08144661 0.15032807 -0.02672749 0.14484043
000010 3a 27 5d bd d0 8e 6a be 39 bd 49 bd 57 48 91 3d
       -0.053992487 -0.22906041 -0.049252722 0.07093876
000020 a2 3e 45 bd 6d 8c d4 bc 99 1a b8 bd c0 7f 8a bc
       -0.048155434 -0.025945866 -0.08989448 -0.01690662
000030 ac 3f 9b 3d b2 1a d0 3d ab 61 66 bd 01 9d 6c 3d
       0.07580504 0.10161342 -0.056245487 0.057766918
000040 8c 2f 7b 3d ae d0 a3 bd 02 2d f6 3c a4 00 14 3d
       0.06132464 -0.07998787 0.030050758 0.036133423
000050 19 1c cf 3d 81 67 38 bd 62 21 6c bd 40 5a b0 bd
       0.10112781 -0.045020584 -0.057649024 -0.08610964
000060 f4 48 a1 3c 90 f3 75 bd cc 20 51 3c 65 55 d1 3d
       0.019688107 -0.060046732 0.012764167 0.10221366
000070 e5 58 e5 bc bf d7 6c bb 17 e9 81 3c 44 90 d9 3d
       -0.02799649 -0.0036139337 0.015858216 0.106232196
000080 fe 4e 63 3d ed aa 1c bc 49 eb ee bc 63 8e 18 be
       0.055495255 -0.009562236 -0.029164927 -0.14898066
000090 1a ac 04 3e b3 58 19 bc 5a c0 28 be bd 2d 24 3e
       0.12956277 -0.009359526 -0.16479626 0.16033073
0000a0 e5 6b 32 be 99 4d 4e be 03 97 ac 3d 44 30 d3 bc
       -0.17423971 -0.20146789 0.08427241 -0.02577985
0000b0 7b f0 ea 3d 1d d5 67 bd 2b 35 23 bd 28 ef 6b bd
       0.11471649 -0.056599725 -0.039845627 -0.057601124
0000c0 32 75 94 bd c1 78 5e 3c 16 55 7a 3d 47 bb aa 3d
       -0.07248916 0.013578595 0.0611163 0.083365016
0000d0 4e 82 86 3c 0d 3f 9b 3b c6 a5 f1 bd d1 5b ca bc
       0.016419556 0.004737741 -0.11799197 -0.024701985
0000e0 11 8d ba bd 1d 1c dc bc e6 cd b9 bd e3 a5 32 38
       -0.091089375 -0.026868874 -0.09072475 4.2593e-05
0000f0 4a 46 05 3e 7e f7 1f bd 97 a5 86 3d e7 28 75 be
       0.13015094 -0.039054386 0.065745525 -0.23941384
000100 b1 62 11 bd 50 82 99 bd 3b 48 e4 bd 09 04 d3 bd
       -0.03549451 -0.07495558 -0.11146589 -0.10303504
000110 71 f9 c1 bd 61 8e 6b 3d 05 e4 62 bc a3 a0 bb bc
       -0.09471405 0.05750883 -0.013848309 -0.022903746
000120 b8 83 81 bc cc 7f 9d 3d 34 39 ed bc 76 48 32 bd
       -0.015809879 0.07690391 -0.02895794 -0.043526135
000130 78 97 9c bd 74 c1 14 3e aa 5d db bb 37 94 8c bd
       -0.07646078 0.14526922 -0.0066945152 -0.06864207
000140 60 54 2f bd 1b 26 e0 bd ef c5 28 3c f9 b8 cf bd
       -0.042805076 -0.10944768 0.010301097 -0.101427026
000150 1f 4a 92 3d 38 71 2d be 04 85 e6 3d b5 c5 91 bd
       0.07143044 -0.16937721 0.112558395 -0.07117788
000160 f1 6e 73 3d 5f 83 88 bd dc 62 90 3d be 78 9f 3d
       0.059431974 -0.06665682 0.07050106 0.077867016
000170 25 93 5c 3b 68 68 02 3e 55 80 29 be 1d dd 34 3e
       0.003365704 0.1273514 -0.16552861 0.17662473
000180 70 58 55 3d 25 6e 8d 3d aa 5b 08 be 27 cd 57 3c
       0.052086294 0.06905774 -0.13316217 0.013171471
000190 dd ec 3c 3e dc 0e 9d bd af ab c8 bd 0f 98 a8 3b
       0.18449731 -0.0766885 -0.09798371 0.00514508
0001a0 c4 8f 81 be 8d b5 df 3c 3d 9f 0d 3e a4 fc 69 bd
       -0.25304997 0.02730825 0.13830276 -0.057125703
0001b0 bf 4d 8a 3a d6 25 83 be 6a ef 9c bd 94 3d 19 3e
       0.0010551735 -0.25614804 -0.07662852 0.14964896
0001c0 0c 5c f5 3d b4 45 f0 3c 6c ea 96 bd 61 21 ca 3d
       0.11980447 0.029330112 -0.07368931 0.09869648
0001d0 49 01 71 3d 18 f1 fb bd c0 6a 83 3c 99 d2 ce 3d
       0.058839116 -0.12301844 0.016042113 0.10098762
0001e0 84 e5 e4 bb 04 68 2b bd 31 84 3b 3c 83 29 be bd
       -0.006985368 -0.041847244 0.011445091 -0.092852615
0001f0 02 b3 6a bd f2 78 d0 3c c7 b7 d0 3d 3d 3c ea 3d
       -0.05729962 0.025448296 0.10191303 0.11437271
000200 99 ed 26 be 12 34 0f be 8f 5d 07 3d 50 04 0e be
       -0.16301574 -0.13984707 0.03304821 -0.13868833
000210 23 c9 b9 bc 0e 26 a5 bd 3e aa f6 3d a3 8f 4c 3d
       -0.022678917 -0.08063899 0.1204419 0.04994167
000220 3b 44 e9 bd 55 20 62 bd 14 a1 a9 bc 1b ef 05 be
       -0.11389967 -0.055206615 -0.02070669 -0.13079493
000230 88 b6 e7 3b e1 41 b0 bc 29 db 8f 3d 7b 44 97 bd
       0.00707132 -0.021515789 0.07024223 -0.073861085
000240 85 c2 9a bd 26 d7 f8 3d bc db d5 bd e0 bd 36 3c
       -0.07556633 0.12150411 -0.10442302 0.011153668
000250 3b 76 ea 3d d3 d3 4d 3d 45 33 af 3d 67 1f aa 3d
       0.11448332 0.05025084 0.08554701 0.08306771
000260 e6 5c 66 bc da f1 0b be 27 7b a8 3d dc c1 f7 3c
       -0.014060235 -0.13666478 0.082266144 0.030243807
000270 b9 50 d7 3c 02 a8 00 be 95 83 b2 3d 7c 5c cf 3d
       0.026283609 -0.1256409 0.087165035 0.10125062
000280 7b ec 12 bd 2a 5a 66 bd e8 5d 1b bc 45 ee 02 3d
       -0.035870057 -0.05623833 -0.009482838 0.031965513
000290 55 5a 67 bb c3 c1 93 bc 73 e1 b3 3c 0c 9c 7d bd
       -0.0035301645 -0.018036729 0.021958089 -0.061916396
0002a0 27 79 69 3e fa fb 36 3e f9 1a 62 3c 22 8c 22 3e
       0.22800122 0.17869559 0.013800376 0.15873769
0002b0 f5 db 2b be 1f 6b 43 be 5d 97 67 bd c1 64 28 be
       -0.16783126 -0.19083832 -0.056540836 -0.16444685
0002c0 5d 79 e8 bd ed 06 b0 bd 4b e8 8d 3e 5e e0 c6 3c
       -0.11351273 -0.08595071 0.27716288 0.024276908
0002d0 a5 dc 3b be ce 06 ba 3d c9 59 ba 3d dc 8c e0 bd
       -0.18345888 0.09083329 0.090991564 -0.10964367
0002e0 5a c6 76 bc 2f b2 d0 3d 7b cc 03 be 5e 6a 3b be
       -0.015061939 0.10190236 -0.12870972 -0.18302295
0002f0 10 fd b7 bd 84 3b 22 be 37 42 45 3d 63 e0 44 be
       -0.08983815 -0.15843016 0.04815885 -0.19226222
000300 c5 59 bc bd 83 fc 88 3d ba da 23 3b 5e 42 df bd
       -0.0919681 0.06688788 0.0025002197 -0.109013304
000310 4a a1 87 bc 5a 94 16 3d 26 2a 08 3d 31 38 c7 3d
       -0.0165564 0.036762573 0.03324332 0.097275145
000320 b8 80 da 3b 9d ef 7a 3c f3 3c db 3d 35 49 81 bc
       0.0066681765 0.015315917 0.107049845 -0.015781978
000330 5d 5f cf bc 21 c2 a2 3d e7 d4 80 bd 24 f7 69 bd
       -0.025314027 0.079471834 -0.06290608 -0.057120457
000340 ac 5e bd 3d e2 0f 18 3e 3d 15 ba bd e3 dc c6 bc
       0.09246573 0.14849809 -0.09086082 -0.024275249
000350 50 d5 52 3e 11 42 60 3c 9a ac 05 3e aa 52 07 be
       0.20589185 0.013687626 0.13054124 -0.13215128
000360 b9 ee a2 3c e5 9b 4c 3d e0 f9 6d bd 84 ae cc bd
       0.019889222 0.04995336 -0.058099627 -0.09994224
000370 e9 ce 73 bd 06 56 6e 3d d4 7c 0d bd da 64 c7 bc
       -0.059523497 0.058187507 -0.034542874 -0.024340082
000380 e4 24 5e bd 6d d8 83 bd fc ce 64 bd ba 3a 9a 3d
       -0.0542344 -0.06437764 -0.05586146 0.075307325
000390 70 9b ff 3d 36 83 76 3d 8f cd 5a 3d b8 10 26 3d
       0.12480819 0.060183726 0.053418692 0.040543288
0003a0 fc 57 14 3e 94 05 09 3e f3 13 3b be ee c5 fd 3c
       0.14486688 0.13381034 -0.18269329 0.03097817
0003b0 8f 9f 7f bd 79 63 ec bd 32 0f d9 bd 5b e1 70 3d
       -0.062408026 -0.115424104 -0.105986014 0.058808666
0003c0 15 5b 85 3c 91 2d 25 bd a3 93 28 bd 67 ae 61 be
       0.016278783 -0.04032666 -0.041156422 -0.22039185
0003d0 74 63 c2 3d 13 bd b2 3e e7 f4 d7 b9 45 0b 31 3d
       0.094916254 0.34909877 -0.00041190462 0.043223638
0003e0 23 9c a0 bd d1 5f 4d be f7 83 fa bd 55 52 3e 39
       -0.07842281 -0.20056082 -0.122322015 0.00018150483
0003f0 22 6b ca 3d 4f ff 6e 3d 84 0c fb bd 42 fc 26 bc
       0.09883715 0.05834895 -0.122582465 -0.010191979
