MLAppUnity/Assets/ML-Agents/MoveToTar1.onnx (onnx, 72639 bytes, 7 tensors)

action_model._continuous_distribution.log_sigma f4 [1, 2]
00000000: 5a7a e3be ac4d a2bf
-0.44429284 -1.2679954

action_model._continuous_distribution.mu.bias f4 [2]
00000000: c67d ea3d 8ffc 79bd
0.11449771 -0.061031874

action_model._continuous_distribution.mu.weight f4 [2, 128]
00000000: f845 a0bd d12a db3d e55b 15bd 4b90 0c3b
00000010: 1b69 3cbe ec25 3bbd 4acd b1bd ceb0 09bd
00000020: 1f91 d83d f875 0ebe 680e efbd cde8 b6bd
00000030: 71cb 14bd 7427 e3bc 936e c33b fa82 b03d
00000040: da8d 533d e230 57bd 617c b7bd 3c73 e0bd
00000050: 1288 b93d a66b 3ebd 441a babc 9a9a a53d
00000060: 5126 ef3d e196 08be 48b7 c8bc 498f 1cbe
00000070: 3034 c33d b29a 123d f69a ecbd 6ea4 84bc
00000080: 8e57 bdbd ffff a5bd 178a a9bd ffd6 603d
00000090: 202e 4a3d d085 35bd ae08 543d c0ee 12be
000000a0: bbd2 aebd 9bbf ad3d c40c d8bd 6722 4e3d
000000b0: 04ab dd3c 3b8d 30be 6827 c53d 949c d63d
000000c0: 0827 a03d 59c7 ebbd f915 21bc 153c 59bd
000000d0: 5354 12be 8382 293d 3646 ef3d 4e37 74bd
000000e0: ed2d d73d 4057 17be 78b2 87bc 3c61 ac3c
000000f0: b7a5 69bd 395e da3d b9c1 803d 0d60 b73d
00000100: ff02 f53d 7f4d 7339 480d 1fbe c426 52bd
00000110: 9d7d 043e 64b2 3ebd f029 e03d 2473 49bd
00000120: af86 dcbd 896a 883d 9705 af3d 995a 103d
00000130: 6b3c 6e3d 42d9 c23d de3c 3dbd daff f4bd
00000140: c775 9fbd f7ac d53c 4519 8fbc c96e f63b
00000150: cb17 0ebd c399 e7bd e678 9d3d 406c 79bd
00000160: ab62 07bd 7be6 493c 19ba 933d 3415 863d
00000170: 369f 683b c03b 85bd 7327 813d 4d6e a23a
00000180: 3798 103d c7e0 10be e96b 8f3d f841 d0bd
00000190: 266f eb3d cf0d b13c d398 cbbd 26fc 433d
000001a0: baf1 00be 9882 9e3d 7999 503c d4a1 b8bd
000001b0: cbbc 873b b127 33bd d162 41bd bb98 d7bc
000001c0: cf19 45be 913c b03d 1338 3dbd 04c6 13bd
000001d0: 67e1 acbd 8fee aebd f073 bcbd 9244 20be
000001e0: 8ea7 3dbd 6e0e d5bd 5bf7 053a a821 2ebe
000001f0: fdb6 09be fe5d be3d 4c97 fbbd aad6 cebd
00000200: 742c 8d3d 7d71 90bd b576 943d 7a91 e13d
00000210: 04cb fdbc 1b75 f6bd 48c0 a63d a6dd 8b3a
00000220: 71b7 223d e4d3 263d 70e9 bfbc 4618 a43d
00000230: 6dec 103e 2a7d e3bd f0f4 c33d ca34 553a
00000240: 8ee0 993d 7820 4d3d 9a76 83bc 2bf1 243e
00000250: cabe 4e3d 56de 7bbb b402 eebd 351a bcbb
00000260: 4d06 263d ab5e 213c 8db2 933b 6452 963c
00000270: 915f 4dbc 8947 80bd 1457 8c3d a16a eebd
00000280: 6e2c 393b e792 87bc de81 efbb 674d a0bd
00000290: 8d13 b63d 3485 243e d3cf 43bb 70a7 adbb
000002a0: 6ae9 83bd 2f19 943c d92a 273c 2fd0 32bd
000002b0: 9bdf 27be 5c5a f63b b2d4 93bc 1fda ed3c
000002c0: c8e1 c23d 8785 ce3b 7886 01be 0ad2 273d
000002d0: 8f7c c13c 56e8 94bc f743 333d 5b64 26bc
000002e0: c8a8 933d 79c6 5ebc 511e 853c 379c 893d
000002f0: ca63 1d3d 0438 8abb 5521 223d 7f30 df38
00000300: 1d5a ecbc 2319 65bb 880d f0bc af7c fd3d
00000310: 289a 463d 2f26 02bd 3cdc 4b3d 27d0 ec3d
00000320: a3d0 ba3c 5dde d8bc 603a a3bc 1f45 833d
00000330: c6aa b93d f4d1 5dbd a8a7 e1bd a1a7 083d
00000340: 31fd 0c3e 6489 853d 0690 ee3d bd91 fcba
00000350: b365 b5bd 30b5 c53c cf54 d0bc 7d69 0abd
00000360: df36 d93d 2326 a7bd 9b7f d2bc 5d2e f63d
00000370: 459a e23c 0b6a 17bd ea71 b33d 506d f9bd
00000380: ce86 f2bb 78ea 5c3c 7b36 33bb a44b c33c
00000390: 16a0 a83d 05f8 9cbd 53dd c23d ac6d 6fbd
000003a0: 1015 843d 1b5e 3f3d 0a19 1ebd c0b5 91bb
000003b0: 888e c23d 5cf3 aabb 8a44 04be 7c7d efbd
000003c0: 739a a5ba d0ef 09bc 0964 c83d 189f 1c3d
000003d0: ea86 1abd 3230 793c 53ac 55ba d53b 91bc
000003e0: 927f b9bd 0aa5 c23d 0114 043d fef2 483c
000003f0: f0be 823d 1f21 69bc 6f49 233d 530e 96bc
-0.078258455 0.10701526 -0.03646459 0.002144831 -0.1839947 -0.045690462 -0.08681734 -0.03361588
0.10574555 -0.13912189 -0.1167267 -0.08931122 -0.03632683 -0.027728774 0.005964109 0.08618732
0.051648952 -0.052536853 -0.0895927 -0.10959479 0.090591565 -0.04648938 -0.022717603 0.080861285
0.1167723 -0.13338806 -0.024501458 -0.15289034 0.09531438 0.03579206 -0.11552994 -0.016191687
-0.09245215 -0.08105468 -0.08278292 0.054892536 0.049360394 -0.044317067 0.05176609 -0.14348888
-0.085362874 0.084838115 -0.1054931 0.050325777 0.027059086 -0.17241375 0.09626657 0.10479084
0.078199446 -0.11512632 -0.009831899 -0.053035814 -0.1428998 0.04138423 0.116833135 -0.059623055
0.105068065 -0.14779377 -0.016564593 0.021042459 -0.057042804 0.10662503 0.0628695 0.08953867
0.11963462 0.00023203155 -0.1553241 -0.0513065 0.12938543 -0.046556845 0.10945499 -0.049182072
-0.10767876 0.06660945 0.08545988 0.03524265 0.058163088 0.09514095 -0.046200626 -0.11962862
-0.07786136 0.026083453 -0.017468104 0.007520531 -0.03469066 -0.113086246 0.07689075 -0.06089425
-0.03305308 0.012323017 0.0721323 0.06547013 0.0035495288 -0.06505537 0.063063525 0.0012392491
0.035301413 -0.14148246 0.07003004 -0.101688325 0.11495809 0.02161303 -0.09941258 0.04784789
-0.12592211 0.077397525 0.012731903 -0.09015241 0.004142379 -0.043739025 -0.04721338 -0.026317945
-0.19248126 0.08605302 -0.046196055 -0.036077514 -0.084414296 -0.08541595 -0.09201801 -0.15651157
-0.04630237 -0.10403143 0.0005110406 -0.17005026 -0.1344871 0.09295271 -0.12284717 -0.10099538
0.068932444 -0.07052896 0.07249204 0.110140756 -0.030980594 -0.12034055 0.081421435 0.0010670915
0.039725725 0.04072942 -0.023426741 0.08012442 0.1415269 -0.111078575 0.095682025 0.00081331714
0.075135335 0.050079793 -0.016047765 0.16107623 0.05047492 -0.0038432083 -0.11621609 -0.005740429
0.040533353 0.009849231 0.004507369 0.018349834 -0.012534992 -0.06263644 0.06852546 -0.116414316
0.0028255242 -0.01654954 -0.0073091825 -0.07827263 0.08890448 0.16066438 -0.0029878512 -0.005299501
-0.064410046 0.018078415 0.010203087 -0.04365557 -0.16393892 0.007518096 -0.018045757 0.029034672
0.095157206 0.006302539 -0.12648952 0.040971793 0.023618964 -0.018177193 0.04376599 -0.010155763
0.07209927 -0.013597124 0.016249808 0.06719249 0.038425244 -0.0042181034 0.03958257 0.00010642502
-0.028851563 -0.003495761 -0.029303327 0.12377297 0.04848686 -0.031774696 0.04977058 0.115631394
0.022804564 -0.026473219 -0.019925296 0.06409668 0.090657756 -0.054155305 -0.11018306 0.03336299
0.1376846 0.06520346 0.11648564 -0.0019269508 -0.08857288 0.024134248 -0.025431065 -0.033792008
0.10606169 -0.08161571 -0.025695613 0.12020562 0.027661452 -0.036966365 0.08761962 -0.12179053
-0.007401324 0.013483636 -0.0027345705 0.02383978 0.08233659 -0.076644935 0.095148705 -0.0584542
0.0644933 0.046720605 -0.038598098 -0.004446715 0.09499842 -0.005216999 -0.1291677 -0.11693856
-0.001263453 -0.008418992 0.09784705 0.03823766 -0.03772632 0.015209245 -0.00081509835 -0.017728725
-0.09057535 0.09504135 0.03224564 0.012264965 0.06384075 -0.014229088 0.039864954 -0.018317377

network_body._body_endoder.seq_layers.0.bias f4 [128]
00000000: 6766 b1bc 1a1b d9bd 613a e0bb 090f 93bc
00000010: 792a ecbd 7aba 123e 8e1a 58bd ef28 37be
00000020: 3845 cd3c 7afb 2b3d d520 9abd b8ff 203d
00000030: a61f a1bd bd93 d1bc d1f7 a93c ef84 f5bd
00000040: 04b4 0bbe 317f e4bb b346 1c3d 3d8d 34bc
00000050: 68ce cfbd 9273 c1bc ee33 153d 177a 11ba
00000060: 56bc 1e3d baeb 8fbd 1a5e 893b 2cf6 583d
00000070: 5d60 c93d 610e 11bd 25af 1cbe 40d3 92bd
00000080: 5a7e 953c ece3 813c 5233 25be 16af 41bc
00000090: 12d8 91bc 376f f3bd 497a 3abe 2df6 5abd
000000a0: 4329 d4bd c830 82bd a57f a53d a31d 683d
000000b0: c2e1 5a3c 4fa5 5bbd cc7b 07bd 42c1 6e3d
000000c0: 43f1 a23d bcd6 d6bc 5b8e fa3c 97f5 e3bd
000000d0: 414b 06be dd62 6dbd d338 b13c 10b8 68bb
000000e0: 9639 8dbd cf8f f7bd 7a0d 8c3d f047 8fbd
000000f0: e117 3ebd 1f04 2dbe fbc5 17bd 088f 993c
00000100: c0b6 4abd ebe2 60bd 3220 cdbc 245d b93c
00000110: 9759 75bd 9fce 18be 74f2 1dbe e962 1f3d
00000120: c519 343d 5e63 88be 9f6c 2f3c f20c 1d3d
00000130: ff2b ea3c b4cd cebd 95f0 a4bc f8a8 03be
00000140: 0eeb 4fbd d92c bbbd 5cad cb3c 1bc6 29be
00000150: 5e69 d0bd fb18 59bd 155c 3cbe e397 383d
00000160: 58aa 043d f841 f43c 835e 803d c90f debc
00000170: a47c 41bd c9c7 773c 9219 eebd 95ef 0dbd
00000180: e7e8 68bd 7986 b1bd f78d a23c 093b 043d
00000190: b294 b6bc 20d1 183c 9bb1 f2bc 78a5 debd
000001a0: 88a5 53be 3893 1cbc ef66 a0bd bc3f 223c
000001b0: 3df6 41bd 8e77 d5bd c69c 94bd e54f 9fbd
000001c0: a0fd 98ba 0010 35bd 41f0 01be f464 ae3d
000001d0: 8f08 26be bdbd bcbd d043 1e3c 5cd1 153d
000001e0: c3dd 603a f582 51bd e14c 27be 7fcf 4dbe
000001f0: 94cb 343b 610b 323d e934 11be 60b0 563d
-0.021655275 -0.10600872 -0.006842897 -0.017951505 -0.115315385 0.14328948 -0.0527597 -0.17886709
0.02505742 0.041987874 -0.075257935 0.039306372 -0.078673646 -0.025583142 0.02074805 -0.11988246
-0.1364289 -0.00697317 0.03815336 -0.011020002 -0.10146791 -0.023614679 0.036426477 -0.0005549504
0.03875383 -0.07027383 0.004192126 0.052969143 0.09832833 -0.035414103 -0.15301187 -0.07169199
0.018248726 0.015855752 -0.16132858 -0.011821529 -0.017803226 -0.11886447 -0.1821071 -0.053457428
-0.103594325 -0.063569605 0.08080987 0.05666889 0.013359489 -0.053624447 -0.033077046 0.058289774
0.07956173 -0.02622544 0.030585459 -0.11130827 -0.13114645 -0.05795561 0.021633541 -0.00355101
-0.06895749 -0.12087976 0.06838508 -0.06996143 -0.04640949 -0.16896103 -0.037054043 0.01874496
-0.04949069 -0.054903906 -0.025039766 0.02262742 -0.059899893 -0.1492257 -0.1542452 0.038912687
0.04396989 -0.2663831 0.01070705 0.038342424 0.028585432 -0.100978285 -0.02013425 -0.12857425
-0.050761275 -0.091394134 0.024862938 -0.16579477 -0.10176347 -0.05300234 -0.18394502 0.045066725
0.032389015 0.029816613 0.06268027 -0.027107136 -0.047238007 0.015123316 -0.11625971 -0.03465231
-0.056862738 -0.08668227 0.019843085 0.032282863 -0.0222877 0.009327203 -0.029625705 -0.108714044
-0.20668614 -0.009556584 -0.07832133 0.009902891 -0.04735397 -0.10423194 -0.07256465 -0.077789105
-0.0011672266 -0.044204712 -0.12689306 0.08515349 -0.16214202 -0.09215877 0.009659722 0.036576614
0.0008577967 -0.05115028 -0.1633792 -0.20098685 0.0027587162 0.043467883 -0.1418034 0.052414298

network_body._body_endoder.seq_layers.0.weight f4 [128, 6]
00000000: 48c8 613e 11bd 8f3c 89e9 39be 0561 533e
00000010: 3c3a 223f 4969 dabe 6ce3 28bf 4612 423e
00000020: e319 9fbe fd58 07bf cd49 873e d0e7 a6be
00000030: 7ef8 22bf add2 cc3e 024e ce3e 8f73 7abe
00000040: 381a 37bd 761c ebbc 7bab acbe 37b8 153e
00000050: 2bd1 c83c 23aa 7b3e c4a4 d23e 4389 923e
00000060: dc59 06bf 27b0 0d3d 63f3 34bf 11cf 26bf
00000070: 70a4 c2be 93b1 ec3e fc11 483e b7c6 59be
00000080: a830 31bf 8656 04be 5ece 62be 9d94 a03f
00000090: 0caa 273c 8ec5 a8bc 4878 d3bd 9acb bc3e
000000a0: 1b1d 4a3e 729f 03bd 1ae0 263f 9d17 54be
000000b0: 0de6 80be 9466 2abb 2825 273f 6d8a 7e3e
000000c0: 8bde 9e3e 2180 a43e 9db8 8d3f 438d 6d3f
000000d0: 2556 a53d 4442 b1bd a885 b9bd 7238 2cbe
000000e0: cca8 5abe 724d 2b3f 8faf 15be bb54 5f3e
000000f0: 6a8e 2b3e f100 98be 1eaa d73e 97d7 163f
00000100: 3a0a 9d3c 3d0e 80bd 7219 033f 768e 25be
00000110: c202 dbbc 4e70 d0be a50f 1d3f 5938 9ebe
00000120: 1e4b a1be 9bd1 9cbf 65d9 36bf 9ef7 f1be
00000130: 898e babe 6e4f 01bf a433 ba3c 05ef 2ebf
00000140: 00ea 7bbe 141c 33be 8111 023e cdbf 57bf
00000150: 1ecf 72be 30b9 ee3e d8d6 433f 7a72 31be
00000160: a74a 50bf d9b7 4c3f 4543 123e 5ecc 003e
00000170: 6152 bcbe 8783 e8bb e8eb e6be 7e09 063e
00000180: cfc3 8c3e e911 f03e fbce aabd 7e8b 58bf
00000190: cb3b 96bf 0e7a 643e df59 5abe 3cdc 42be
000001a0: dd96 a1bd e0f1 503e 85dc 43bd 32bb b6be
000001b0: b2ea b2be 05cf 38be c0c4 c6be 8ead 0d3f
000001c0: cc95 5f3e 6776 bbbe 088c 83be e7dc 00bf
000001d0: 999e 1b3e bc15 bf3e 58ac 083f 4f01 8abe
000001e0: f9b9 7e3e cf95 d13e 6e35 fbbe 7f82 e93e
000001f0: 97d4 b73e e4a9 603e 5bf6 4bbf 7fe2 8abe
00000200: 94d2 853e 8808 d9be 4c71 da3e 3cf9 1b3e
00000210: a821 25bf b949 943e 5fc1 05bf 93b0 293f
00000220: 9ec7 a63e 85c9 133f f25f db3e fcf9 25be
00000230: c554 fc3e 50da 833e 9665 6abe 2a1e 7b3f
00000240: 1824 e3bc c763 6ebc 8e35 c7be f49a a8bc
00000250: 7b1a bd3e c931 263f 9dbd 26be 45f2 8cbe
00000260: 17f7 643d 7e23 07bf 540c e23d 80a7 b6be
00000270: 1826 65be 36a1 bdbe b723 1a3f 2f49 b03e
00000280: 3f14 1bbf 7ec1 18bd 4ec7 a73e 39ac 0a3f
00000290: b8a5 b5be f896 cebe ed0a c5be e3a1 76bc
000002a0: b14f cabe caff 653d 71fc f9bd 2a9e 573e
000002b0: 94a8 2f3f 7e49 223f fdb1 d1be 7097 01bf
000002c0: ce08 d13e 1e24 173d 96a2 153f 6d8c fe3e
000002d0: 2394 87be 0b3b 03bf 25d9 543e bd76 7abf
000002e0: 481c 103e cad8 10bf 3fec 79be 8034 e8be
000002f0: 5b84 16be 8d85 59be 558e f03d b1a5 35bf
00000300: 92a2 cfbe 2088 19be d620 08bf 4f40 7b3e
00000310: aa6f 32bf 847b 063d 2b91 963e 60bf a43e
00000320: 5267 d23e 3b3a d8be d687 c83d 43cb 003e
00000330: ba5b b33e 633c b03e 1e8f 543e ca24 bd3e
00000340: dd5a f7bd fe60 84be ede1 3bba 95a3 1b3f
00000350: d66d 283f e10c e4bc 278c a63e 4244 82bd
00000360: 66cd d43e 1969 b2be 5706 543f fd57 84be
00000370: 686c c03e d659 8d3e e5cc 91be 3556 cebd
00000380: f44d 08bf 02a3 05bf 29f5 dfbe bb41 9a3e
00000390: a997 aebd e3d1 5cbe 4469 75bd 4738 30bd
000003a0: 177d afbd b6b3 4abe 4742 9ebe 1c69 8b3e
000003b0: 3171 923d 4ab9 15bf 880b a4bd 4e03 923d
000003c0: a2ed d0be 03d4 d73e e664 9fbd 9d6e 4dbf
000003d0: a75a a43d f6cd 62bf c34d 74bd 8f35 393d
000003e0: 5b01 a3be 5a04 bd3d 069c d8bd 6c9a ce3d
000003f0: 70e8 ddbe ece4 4f3e 103d 1c3d e104 1d3f
0.22049057 0.017546209 -0.18155493 0.20642479 0.6337011 -0.4265845 -0.6597202 0.18952283
-0.31074437 -0.5287016 0.26423493 -0.32598734 -0.6366042 0.40004483 0.4029389 -0.24458145
-0.04470274 -0.028700095 -0.3372458 0.14621054 0.024513802 0.24576621 0.4114133 0.28620347
-0.52480865 0.03459182 -0.7068388 -0.6515971 -0.3801608 0.46229228 0.1953811 -0.2126721
-0.6921487 -0.12923631 -0.22149035 1.2545353 0.010233413 -0.020602014 -0.10325676 0.36874086
0.19737665 -0.03213448 0.651857 -0.20712133 -0.25175515 -0.0026001083 0.6529107 0.24857493
0.31029162 0.32129005 1.1071965 0.92793673 0.080730714 -0.08655217 -0.09058696 -0.16818407
-0.21353453 0.6691505 -0.14617752 0.21809666 0.16753545 -0.29688218 0.42121977 0.58922714
0.019169915 -0.06252716 0.512107 -0.16167626 -0.026734713 -0.40710682 0.61351997 -0.30902365
-0.31502622 -1.2251467 -0.7142547 -0.4725923 -0.3643687 -0.50511825 0.022729702 -0.68333465
-0.24600983 -0.1749118 0.1270199 -0.8427704 -0.23711821 0.46625662 0.764997 -0.17328826
-0.8136391 0.7996803 0.14283474 0.1257796 -0.367816 -0.0070957574 -0.45101857 0.13089558
0.2749314 0.46888664 -0.0834026 -0.8458785 -1.1736997 0.22312185 -0.21323346 -0.19029325
-0.07890103 0.20404768 -0.047817726 -0.35689694 -0.34944683 -0.18047722 -0.38821983 0.5534295
0.21834487 -0.3661377 -0.25692773 -0.5033707 0.15197219 0.3732127 0.53387976 -0.26954123
0.2487563 0.40934607 -0.490642 0.45607373 0.3590438 0.21939808 -0.79672784 -0.27125928
0.2613722 -0.4238932 0.42664564 0.15231794 -0.6450448 0.28962496 -0.52248186 0.66285056
0.3257417 0.5772937 0.42846638 -0.16208643 0.49283424 0.25752497 -0.22890314 0.980929
-0.027727172 -0.014550156 -0.38908046 -0.0205817 0.36934265 0.64919716 -0.16283269 -0.27528587
0.055899706 -0.5278853 0.11037508 -0.35674667 -0.22377813 -0.37037057 0.60210747 0.34430835
-0.6057777 -0.037293904 0.32769245 0.5416904 -0.35477996 -0.40349555 -0.38484898 -0.015053245
-0.39513925 0.056152143 -0.122063525 0.21056429 0.68616605 0.6339339 -0.40956107 -0.506217
0.4082703 0.03689968 0.5845121 0.4971651 -0.26480207 -0.5126197 0.20785959 -0.9783743
0.14073288 -0.56580794 -0.24406527 -0.45352554 -0.14698927 -0.21242352 0.11745898 -0.7095595
-0.4055372 -0.14993334 -0.53175104 0.2453625 -0.69701636 0.032832637 0.2940763 0.32177258
0.41094452 -0.42231926 0.09791534 0.12577538 0.3503092 0.3442107 0.2075772 0.3694213
-0.12077878 -0.2585525 -0.00071671495 0.6079648 0.65792596 -0.027838172 0.32528803 -0.063606754
0.41562957 -0.34845808 0.82822174 -0.2584838 0.37582707 0.27607602 -0.28476635 -0.100750364
-0.5324395 -0.52201855 -0.4374173 0.30128273 -0.08525021 -0.2156444 -0.059914842 -0.04302242
-0.08568781 -0.19795117 -0.3090994 0.2722863 0.07150496 -0.58485854 -0.08010012 0.071295366
-0.408063 0.4215394 -0.07782917 -0.8024691 0.08025103 -0.8859552 -0.05964447 0.045217093
-0.31836972 0.092293456 -0.10576634 0.100880474 -0.43341398 0.2030217 0.03814417 0.6133557

network_body._body_endoder.seq_layers.2.bias f4 [128]
00000000: 164a a2bd 4707 2abd ccee 41bd d288 0abd
00000010: f307 85bd aaab 10be 6dd8 e13a 51af 49be
00000020: 4344 963c a9de 22bd 884c b0bc 4351 24bd
00000030: abe3 6fbd ae95 783d 23a2 b23d 758d 10bd
00000040: a0b5 e8bd ff86 cc3a 138d d4bd 2a77 97bc
00000050: ed1d 2b3c fd2a c0bd 1f8d 34be 2128 83bd
00000060: 5588 c43d f8fc dcbc bc7b c1bd 165b 113d
00000070: 323a db3d ff63 463d 2afc 82bd d417 2abe
00000080: 1f9c 23bc 58bb 87bd e665 c9bd 629f dabd
00000090: 96c6 cd3d 3643 febd 8d34 b0bd f4d1 a33b
000000a0: 1516 2a3b e7ca 26bd ea8c 35be 8d99 8bbe
000000b0: c760 ee3d ccaf 233d d9a0 db3d fc76 47bb
000000c0: b279 33bd 396c a33c fd02 1fbe b8d6 21bd
000000d0: 4d2b 903c 2e72 85bb 0dd3 8a3d 9c2c f6bc
000000e0: 4f26 c03d de16 8fbd beee 13be 2b25 1c3d
000000f0: ed9d b33b 0659 a73d 1d48 223d 26f7 833b
00000100: 9e62 e6bd f4ac ed3b d279 a7bc 0f48 66bd
00000110: 2f1a b63d 9d9b d3bd 800c ed3d 477b 82bd
00000120: 2bd7 62bd 6969 bc3d 1234 943d 3756 81bd
00000130: 0c98 f9bd 0ee5 32bd b338 ccbd f2e5 efba
00000140: bee8 e0bb b556 0fbe a3b4 dbbd 649d 433d
00000150: 0e0b 4dbe bbda fa3b 9240 f03d d78e 1bbd
00000160: 377a 3fbd 0441 b33d f620 3abd be5e 6bbd
00000170: 43de 96bc d641 a1bd fb4e f73d 8165 2abe
00000180: fccf ae3c 671c 6dba 7965 823c 94f8 903c
00000190: 6142 e13a f072 60bd 6300 bebd d890 41bd
000001a0: 6d06 5cbd 38d6 1ebe abc1 823d 0573 c4bb
000001b0: c8c6 c6bd e968 f2bd 5e11 cc3d edaf d1bd
000001c0: 6466 b23d 571f c83d 3061 b0bd c95a 15bd
000001d0: 1c1e ccbd ccf8 25bd bf12 f8bd e8e7 08bd
000001e0: 5e40 dabd 405d 8dbc 4db4 51bd 1500 0d3d
000001f0: 0064 b4bd 3a5c da3d a883 3dbd 1545 a1bd
-0.07924287 -0.041510846 -0.047346875 -0.03382189 -0.06495657 -0.14127985 0.0017230638 -0.19695784
0.018343097 -0.039763127 -0.021520868 -0.04011656 -0.05856673 0.06068962 0.087223314 -0.035291154
-0.11362767 0.0015604197 -0.1037847 -0.018489439 0.010444147 -0.09383199 -0.17631958 -0.06404138
0.09596316 -0.026976094 -0.094474286 0.035487257 0.10704459 0.048435207 -0.06395753 -0.16610652
-0.009985953 -0.0662753 -0.09833889 -0.10674931 0.10047643 -0.12415163 -0.08603773 0.0049993936
0.0025953103 -0.040720847 -0.17729536 -0.27265587 0.116395526 0.039962575 0.10724039 -0.003043591
-0.04381723 0.019949066 -0.15528484 -0.039511412 0.017598772 -0.004072449 0.06778536 -0.030050568
0.09382307 -0.069867834 -0.14446542 0.038121384 0.0054814727 0.08171277 0.039619554 0.004027265
-0.112492785 0.0072532836 -0.02044383 -0.056221064 0.08891713 -0.10332415 0.1157465 -0.063711695
-0.05538098 0.09199793 0.07236494 -0.06315272 -0.12187204 -0.043675475 -0.09971752 -0.0018302782
-0.0068636825 -0.1399792 -0.10727813 0.04775752 -0.20023748 0.0076554692 0.11731066 -0.03797802
-0.046747413 0.08752635 -0.04544159 -0.0574634 -0.01841653 -0.07873885 0.12075611 -0.16640283
0.021339409 -0.0009045065 0.015917527 0.017696656 0.001718592 -0.054797113 -0.092774175 -0.047257274
-0.053717066 -0.15511405 0.063845955 -0.0059951567 -0.09705883 -0.11836416 0.0996425 -0.10238633
0.08710936 0.097716026 -0.08612287 -0.036463533 -0.099666804 -0.040520474 -0.121129505 -0.033424288
-0.10656808 -0.01725638 -0.05119734 0.034423906 -0.08808136 0.10662122 -0.046268135 -0.078745045

network_body._body_endoder.seq_layers.2.weight f4 [128, 128]
00000000: 1ac5 f4bd 58f7 153e 4c87 bf3d 4f08 f9bc
00000010: 2801 96bb 381d bd3d 8130 afbd 71cd ccbd
00000020: d98d 75be 6e84 0dbe 66a4 04be c2de 70be
00000030: bdad 103e 24b3 373e 7124 89be d763 aabc
00000040: 2582 a43d fd8a 233d cc82 cebc d328 51be
00000050: 52a2 07bd 53f2 103d 7b8c 293e 8f47 e1bd
00000060: 9d58 1c3e 0181 0d3d 2f14 d9bd 189d f93b
00000070: cc8b 7abc 8baa 20be 6758 7a3c c8ae 1ebd
00000080: 4066 8aba e982 bb3d 8a76 49be b227 90bd
00000090: 0bd5 b6bd 67a0 0e3b fe37 20bc 4cb8 7cbd
000000a0: 4b89 923c b613 77bc daa6 2c3e e238 3b3c
000000b0: 6184 1ebe 10e3 853e 95e2 f1bd 307f 92be
000000c0: a0b8 92bd f7f0 20be 3f0e d23d fb0d 08be
000000d0: 9ffd a83c caf8 efbd 332b 913d 49d2 e6bd
000000e0: 7696 1bbd 7601 ccbd 6128 5e3d 6b62 083e
000000f0: 7eb5 213e 2af4 e73d 1e97 c43c 5262 683d
00000100: 41a6 4cbe 42d4 ab3b 87b6 e2bd 9f82 64be
00000110: 8c02 e2bc 67ce 3d3e 9625 34bd adba f4bc
00000120: 108d 01be 1ef7 0c3e 0524 ca3d 9c41 6e3d
00000130: 799a f9bd 60f0 6cbc ebb1 85be a6d5 f8bc
00000140: 7d47 b93b c0df a13c f10f 113e 04af 8cbd
00000150: bbce 0d3d 7dfd 543d 8681 853d 136a 3d3e
00000160: 08b9 44be e432 d53d d17a 81be 0461 02be
00000170: 1783 70be 4833 a03c cbb6 813e 2dad 71bc
00000180: e3b7 2dbe 8c0d debb cdde ac3d ceac c2bd
00000190: edb5 c23d 30d0 27bb 67b0 123e 37b0 c73d
000001a0: 2546 523d 855e 58be 3342 893b 5711 173e
000001b0: 0c00 31bd 82cc 2fbe c9bf 45bd 3062 8a3d
000001c0: 10f3 323e 4d00 22be 0ee7 c83c 0fdd de3d
000001d0: 2ad6 15be 8baa 8dbd be91 fbbd 088b d2bd
000001e0: 762f ad3c 1cd4 95bd 8dde fcbd 49c5 8cbc
000001f0: 0157 91bd 35df bcbc 0732 a83c d553 893d
00000200: f0ea 80bd 1c23 573d a579 cbbd 01eb ebbc
00000210: 6316 c43b 45fb 61be a305 cabd ed14 b4bd
00000220: 70db c2bc d092 9fbd b333 abbd d490 5e3d
00000230: 9f5e 29be 8b5e 6cbc 39cd 4eba a9ac 43be
00000240: c4d5 be3d 7877 cebd 31da 1ebe 5e86 e53b
00000250: ce9c 55bc cf6e a93d 549c 0ebe 1e46 b5bc
00000260: 1def 12be 0e19 4c3d fa0a f33c 271e dabd
00000270: 391a 90bd c789 423d bdf7 063e 50d5 f23c
00000280: d412 62be c168 05bd 6fd2 cf3c 6d9f 233e
00000290: 4c13 bd3d f020 15bd 7978 e1bd 6096 453d
000002a0: d9f3 813d 5f66 95be d19f e7bd 87ff 2ebe
000002b0: 78f6 83bd 608a 8bbe 137c 1a3e 74e7 d23b
000002c0: bd95 0c3e 671c f23d 98e8 393c 3547 93be
000002d0: 97fe 333e 393b 97be b342 c7bd 6ec4 f73b
000002e0: 4b97 72bd acd8 9cbe 8c63 6dbe 2d01 1ebe
000002f0: 4b3b 323e 1e30 5c3e e681 6dbe a1c8 07be
00000300: 181f 14be 2a08 b13d 61d0 333d 2bbe 943d
00000310: b6ca 98bd dad4 a3bd 5060 a2bd 0e3f 85bb
00000320: 9217 0e3e 3295 87bc 7511 38be efc1 bbbd
00000330: b170 83bd bdea 043d 69be 883d 4f5e 14be
00000340: 125d 093d ea03 a0bc fb91 b4bb 224d 153e
00000350: aff5 2c3e cbda fb3d 6475 1abe f788 26be
00000360: 44cc 573e 7396 53bd f3f2 603e ca8c 9abd
00000370: b55d 1dbe 6864 fbbe 0d1f 06be d20d 89be
00000380: 837d 16be a710 e43d 4ffc 6fbd fe60 e13d
00000390: 241a 503e 9258 663e 22cb 8cbd ca5c 243d
000003a0: 1708 ae3c d2a4 0dbc 5289 06be a0aa 64bc
000003b0: f4ba 693c 432c 00be f6c2 b83d 5566 06be
000003c0: 6e80 6cbd 5978 163d c6c8 fabd 8f17 05be
000003d0: be1d 1f3d 9709 bc3d 49f5 a6b9 af97 1dbe
000003e0: 21b7 70bd 5e53 72be ce99 91be 2840 ecbb
000003f0: 4d7f e53d 22e7 20bd d0b9 f8bd d1cf 14be
-0.11951657 0.14645135 0.09351978 -0.03039947 -0.0045777746 0.09234089 -0.08554173 -0.10000122
-0.23979892 -0.13820049 -0.12953338 -0.23522475 0.14128776 0.1793943 -0.26785615 -0.02079956
0.080326356 0.03992747 -0.025208853 -0.2042573 -0.033113785 0.03538735 0.16557495 -0.10999977
0.15268178 0.034546856 -0.10599553 0.007617604 -0.015292119 -0.15690057 0.015279866 -0.038740903
-0.0010559037 0.091558285 -0.19674125 -0.07038821 -0.089273535 0.0021763088 -0.009778975 -0.061699197
0.017887732 -0.015080383 0.16860524 0.011427136 -0.15480186 0.26149797 -0.11810795 -0.2861266
-0.07164121 -0.15716921 0.102566235 -0.13286583 0.020628748 -0.117173746 0.07088318 -0.112705775
-0.037985288 -0.09961216 0.054237727 0.13318793 0.1579189 0.113258675 0.02399784 0.05673439
-0.19985296 0.005243809 -0.110699706 -0.22315453 -0.027589105 0.18535767 -0.043981157 -0.02987417
-0.12651467 0.13766143 0.098701514 0.05816804 -0.121876664 -0.014461607 -0.26112303 -0.030375313
0.005654274 0.019760013 0.14166237 -0.06869319 0.03462098 0.051999558 0.06518845 0.18497495
-0.19211209 0.10410097 -0.25289014 -0.12732321 -0.23487507 0.019555703 0.25334772 -0.014750761
-0.16964678 -0.0067765173 0.084409334 -0.09505616 0.09507356 -0.0025606267 0.14325105 0.09750407
0.051336426 -0.21129806 0.0041887998 0.14752708 -0.043212935 -0.17167857 -0.048278604 0.06757009
0.17475533 -0.15820427 0.024524238 0.10882007 -0.14632478 -0.06917294 -0.122836575 -0.10280424
0.021140795 -0.07315847 -0.12347136 -0.017183917 -0.07096673 -0.023055652 0.020531667 0.06705443
-0.06294811 0.052523717 -0.09935311 -0.028798582 0.005984114 -0.22068508 -0.09864356 -0.08793054
-0.023786277 -0.07791674 -0.0835947 0.054337338 -0.16540001 -0.014426838 -0.0007888857 -0.19108833
0.09318116 -0.100813806 -0.15512921 0.007004543 -0.013037873 0.08273088 -0.13926822 -0.022128161
-0.14349027 0.04982858 0.02966832 -0.10650282 -0.070362516 0.047494676 0.13180442 0.029642731
-0.22077495 -0.032570604 0.025368897 0.15978785 0.09232196 -0.036408365 -0.110093065 0.048239112
0.063453384 -0.29179665 -0.113097794 -0.17089663 -0.064434946 -0.2725401 0.15086393 0.006436283
0.13728996 0.118218236 0.011346959 -0.28765264 0.17577587 -0.2953737 -0.09729519 0.007561258
-0.059226315 -0.30634058 -0.23182505 -0.15430136 0.17405431 0.2150273 -0.23194084 -0.13260128
-0.14464986 0.08644135 0.043899897 0.07262834 -0.07460539 -0.079995826 -0.079285264 -0.0040663546
0.13876179 -0.016550634 -0.1797541 -0.09167849 -0.064179786 0.032450426 0.06676943 -0.14489101
0.033536024 -0.019533116 -0.0055105663 0.14580205 0.16890596 0.12297591 -0.15083843 -0.16263185
0.21074015 -0.05165715 0.21967678 -0.07546385 -0.15367778 -0.4910004 -0.13097782 -0.26768357
-0.14696316 0.11135989 -0.05859023 0.11004828 0.20322472 0.22494724 -0.06874682 0.040127553
0.021244092 -0.008645253 -0.13138321 -0.013956696 0.0142657645 -0.12516885 0.09021561 -0.13124974
-0.057739668 0.036735866 -0.12245326 -0.12997268 0.038846724 0.091815166 -0.0003184474 -0.15389894
-0.058768395 -0.23664615 -0.28437656 -0.0072097965 0.11205921 -0.039282925 -0.12144816 -0.145324
