MLAppUnity/Assets/ML-Agents/MoveToTar1.onnx (onnx, 72639 bytes, 7 tensors)

action_model._continuous_distribution.log_sigma f4 [1, 2]
00000000: d7e8 b9be ac38 60bf
-0.36310455 -0.87586474

action_model._continuous_distribution.mu.bias f4 [2]
00000000: 77e6 c33d 6884 67bc
0.09565442 -0.014130689

action_model._continuous_distribution.mu.weight f4 [2, 128]
00000000: 82cd c9bd 5b56 31bc 9703 b8bd 0430 71bd
00000010: b0ba d3bd d301 88bc 7c6c 9fbd be2e 0dbd
00000020: be52 d03d a232 bcbd 6825 55bd ef85 9abd
00000030: 884d a3bd c637 4dbd f8e0 21bc 2952 063c
00000040: 7864 f03b f818 d5bd eaa3 c7bd f103 e6bd
00000050: e861 5e3d 951b 60bd 2d07 3bbd 3b93 213c
00000060: 052b d23d 1c59 d5bd 93f9 823c 38f9 c8bd
00000070: 89fe d73d ae5c e03c 419c d2bd 6982 35bd
00000080: 718f 81bd af2b 49bd 43d0 c8bd 408e a53b
00000090: 29d9 8cbc ee24 dabc 6dbf 5a3b 64c6 82bd
000000a0: 693d 95bc a75c 603c bbf8 d9bd fa35 85bc
000000b0: d3c4 433b e6e7 c2bd 4333 e03d 3ede 583d
000000c0: 6d4a 6ebd 0395 cbbd 8f12 08bd 7744 3dbd
000000d0: e89e a3bd 7d1a 633c 73ab cf3d 3662 31bd
000000e0: 0ea5 a63d ff5f b5bd 4bd3 c1bd c450 66bd
000000f0: 228f f2bb ee43 fa3d 9ec3 4fbd 82fb b53d
00000100: a645 673b 4784 b63c 5d23 50bd 419c 82bd
00000110: d5fa da3d ce96 82bd 1e6b c73d 6797 cfbd
00000120: c489 99bd 1267 b23d 429a c63d 37cf 80bd
00000130: 3020 87bd 3d58 94bc 6b0f 93bc d911 d3bd
00000140: 064f c8bd 7b2f aebc 9213 09bd 3e2b 8e3d
00000150: f90a 3bbd ddc3 e9bd 4ae3 d63d 7942 68bd
00000160: 5dcd b1bd 2f97 f53c e7bb 683d 3483 02bb
00000170: 57bb 3cbd 47d9 84bd 0a28 8b3d f6f8 26bd
00000180: f3e6 983d 44eb 5cbd a035 a13d 2d0b e2bd
00000190: 66e4 b23d 48b8 f3bc 4dea f8bd c393 c2bd
000001a0: 5071 9cbd a838 523b 12d6 7d3d 7ec3 52bd
000001b0: a758 c0bd 664b 7dbd 2f5e 80bd 3a09 333c
000001c0: e96f 0dbe fecb bc3d 4e28 80bd 7089 03be
000001d0: b68e 8ebd 79cf acbd f916 79bd 68d8 acbd
000001e0: bda7 91bd 79a3 d2bd de82 bbbd 3849 b0bd
000001f0: f3d2 f5bd 55d3 c33d fb42 0bbe 57eb 78bd
00000200: a776 79bc 68e0 afbb 6ce7 9f3d 3288 bc3d
00000210: ecf7 9ebc f47a 0cbb b519 dd3d 7a57 8dbb
00000220: 9e20 253d 6e8e 48bc cdbc f0bb 82b0 b53d
00000230: 1bef 36bc ccde 2dbd a9c4 bb3d 0898 eb3c
00000240: ee04 033c f4ef af3b 7b59 d73c 9a2e 7bbc
00000250: 07fe c2bc 82f6 66bd e486 80bc 2ea3 103c
00000260: c844 9b3c 6fa8 c43c 6490 bebc 7d79 a1bb
00000270: 4903 2ebb 8ea4 223b a374 a8ba a1a6 84bc
00000280: d0de d4bb f916 fbbb d740 023c 4c29 133d
00000290: 0bcd 3c3d 6b82 943b 1a0a 65ba 31d9 31bc
000002a0: 32e9 9ebd c0e5 bd3c 301f 5ebc 0470 d7bb
000002b0: a1f7 c4bd 4163 a8bb c44b ccba caa1 423d
000002c0: ff8d be3d 8084 903c f89d d0bb 13cb e13c
000002d0: 943d dfbb 47da 9abd 6f1a 253d 942d eebc
000002e0: f1a3 453d 76f7 e6bc 59f7 64bc a3bd d13c
000002f0: 625f 7c3c a392 41bc afc6 043b 75aa 043c
00000300: 72af 663c 0d55 54bd de18 eebc a060 e83c
00000310: 2292 373d ff8e d93c 4fc6 9c3c 55b3 35bc
00000320: 1316 fc3c 8404 a0bc 714b 53bb 2c04 313d
00000330: 435a c3bb f9ab 2dba 3e3b d8bb bf19 893c
00000340: 082c 8cba 29b7 06bc 4690 febc 81ee e8bc
00000350: 2fcd 60bc ce4a 3b3c 1d76 a1bc 7ead c9bd
00000360: 0b73 a0bc 840a 8bbd 2c4f 97bc d3f6 ccba
00000370: 108a 093d 266f de3c b524 023d 4d97 11bc
00000380: e7af 08bc 57eb fdbc ead8 a3bb de5a 1f3c
00000390: 76c6 b03d ae9d 2bbc b1c0 54bc 8010 e93c
000003a0: 99a4 21bc a863 4d3c 12d9 72bd 99f1 4cbd
000003b0: b18c 5e3c 9241 a13c a34f 1fbd 1041 283c
000003c0: 7e55 a5ba fd18 a3bb 142c 99bb 11c9 173d
000003d0: 98ce 4b3c 9ed0 763c c2ef c53c 809f aabb
000003e0: 8495 343c 2940 d03d b06c 3f3c 6ff7 4dbc
000003f0: 1498 88ba bd1d 0dbc 2ab8 bfbc ab29 2fbd
-0.09853651 -0.010823811 -0.0898506 -0.058883682 -0.10338342 -0.016602432 -0.077843636 -0.034468405
0.10172032 -0.09189345 -0.052037627 -0.07545077 -0.07973772 -0.050102018 -0.009880297 0.008198299
0.0073361956 -0.10405153 -0.09748061 -0.112312205 0.05429259 -0.054713804 -0.04566114 0.009861763
0.102621116 -0.10417387 0.015988147 -0.0981316 0.105465956 0.027387943 -0.10283709 -0.044313822
-0.063261874 -0.049113926 -0.09805348 0.005052358 -0.017193394 -0.026628938 0.0033378259 -0.06385496
-0.01821776 0.013693965 -0.10643145 -0.01626109 0.0029871955 -0.09516887 0.109472774 0.05294632
-0.058176447 -0.09940531 -0.033220824 -0.04620787 -0.07989293 0.013861296 0.10140123 -0.043306552
0.081369504 -0.088562004 -0.09464129 -0.056229368 -0.0074023167 0.12219988 -0.050723664 0.08885862
0.0035289316 0.022279872 -0.050814975 -0.06377459 0.10692374 -0.0637642 0.09737228 -0.101362996
-0.0749698 0.08711065 0.09697391 -0.06289523 -0.06597936 -0.018108482 -0.017951688 -0.103061385
-0.097806975 -0.021262875 -0.03346593 0.069418415 -0.04566476 -0.11414311 0.10492571 -0.05670402
-0.08681748 0.029979317 0.056819823 -0.001991463 -0.0460771 -0.06486755 0.06794746 -0.04076477
0.07465925 -0.053935304 0.07871556 -0.11037288 0.0873497 -0.029750958 -0.12154064 -0.095008396
-0.076388 0.0032077227 0.06197173 -0.051455967 -0.09391909 -0.061839484 -0.06267964 0.010927493
-0.13812222 0.09218596 -0.062576875 -0.12845397 -0.06960814 -0.0843801 -0.060812924 -0.08439714
-0.07112072 -0.10285086 -0.0915582 -0.08607715 -0.12003126 0.09561793 -0.1359977 -0.060771313
-0.015226043 -0.0053673275 0.07807812 0.09205665 -0.019405328 -0.002143559 0.10795919 -0.0043134065
0.04031431 -0.012240989 -0.0073467256 0.08871557 -0.011165406 -0.042448804 0.09168369 0.028759018
0.007996781 0.005369181 0.026287785 -0.015330935 -0.02380277 -0.056387432 -0.01568932 0.008827968
0.018953696 0.024006097 -0.02326221 -0.0049278126 -0.002655225 0.002481732 -0.0012852143 -0.016192736
-0.006496288 -0.0076626507 0.007950029 0.035928056 0.04609398 0.0045321486 -0.0008737162 -0.010855005
-0.07759322 0.023180842 -0.01355724 -0.0065746326 -0.09617544 -0.005138785 -0.0015586545 0.047517575
0.09304427 0.017641306 -0.0063664876 0.027562654 -0.0068127606 -0.07561164 0.040308412 -0.029074468
0.04825205 -0.02819417 -0.013974988 0.025603121 0.0154036 -0.011814746 0.0020260026 0.008097281
0.014079915 -0.051838923 -0.029064592 0.028366387 0.044817097 0.026557444 0.01913753 -0.011090119
0.030772245 -0.019533403 -0.0032241012 0.04321687 -0.005961688 -0.0006625052 -0.006598859 0.01673591
-0.0010694275 -0.00822238 -0.031074654 -0.02843404 -0.013720795 0.011431409 -0.019709641 -0.09847544
-0.019586107 -0.06789115 -0.01847037 -0.0015637524 0.033578932 0.02715261 0.031773288 -0.008886171
-0.00834272 -0.030996008 -0.0050002234 0.009726254 0.086316034 -0.0104746055 -0.012985394 0.02845025
-0.009865903 0.012535967 -0.059289046 -0.050035093 0.013583348 0.019684587 -0.038894307 0.010269418
-0.001261398 -0.004977344 -0.004674444 0.037056986 0.0124393925 0.015064387 0.024162177 -0.005207002
0.011021975 0.101684876 0.011683628 -0.0125712 -0.0010421299 -0.008613047 -0.023403246 -0.042764347

network_body._body_endoder.seq_layers.0.bias f4 [128]
00000000: 5943 13bd 9a40 44bd 8b3a 15bd 1f9e bf3c
00000010: 5e47 b9ba 1434 583d cda1 92bd 43b4 f5bd
00000020: 995f 71bd f3f5 293b fd2e 68bd 9504 863d
00000030: d729 69bd 8f6b db3c f1ce b43c 1544 c9bd
00000040: a374 0fbe 4d59 a7bc 6fba fe3c 6577 9b3b
00000050: b675 08be 6a72 dabc 172c 1f3c 4b04 05bd
00000060: fa76 24bc 88a2 52bd beaf cf3c 0229 9c3d
00000070: f759 a83d a64e d83a 8282 e7bd e6ab 493d
00000080: d764 833d 0648 bb3d a0c8 2dbe 6b5a 6c3c
00000090: 7bdc 643d 0d07 4ebc 84b7 01be ed29 e3bb
000000a0: bfbe 82bd f6eb 82bd 3769 0e3d af23 a5bc
000000b0: a481 353d 5b7a 23bd c71d 45bb b590 9e3c
000000c0: e783 683d 417a 5e3d 9898 a0bb c0ee 89bd
000000d0: c214 31bc f5c8 dcbc 88ff 5b3d 28a9 4abc
000000e0: 0eec a3bd efb0 32bd 2123 b63b 6790 563c
000000f0: ba43 a83c 5cff dcbd 785c f7bc 60e2 253d
00000100: 73a6 adbb f362 063b 1629 863c 41d3 0eba
00000110: 71bb ec3b fe54 e4bd f37f eabd 69ad edbc
00000120: 4730 b03d 739a 48be aff8 433c f437 9b3d
00000130: e0eb 523d e888 94bc f120 75bb 0e79 e2bc
00000140: 056d d5bb c75a cabd bf9c 323d 8faf a9bb
00000150: b683 41bd 4f90 1b3d 9dfb c4bd 5cba bf3c
00000160: bc1b 09bc 5472 ac3c 6424 833c dc38 073d
00000170: 5c1c 46bd f8f8 e83b 53ea 8fbd 95ec e0bb
00000180: 3f4a 4dbd 8a38 37bc af3c c1ba 15fa 553d
00000190: 5bab 9c3c d1b0 2f3d 0d2c bebd d02e 41bc
000001a0: f6d8 2cbe 02e8 413d 4c5f c3bd cc49 513d
000001b0: dd10 b93b 35e5 fabd 47e1 10bd f8c1 d5bb
000001c0: 4934 81bd 3f5d 91bd a16c b9bd 44d6 043e
000001d0: 8a83 01be 6f6b 53bd ea15 77bc bd37 d43c
000001e0: ce9f a13c a9c1 acbd 1d74 03be a32e 6abd
000001f0: b003 8ebc ba91 0f3d ed32 75bd 9189 8a3d
-0.0359529 -0.04791317 -0.036432784 0.023390828 -0.0014135649 0.05278404 -0.07159767 -0.11997273
-0.05892906 0.002593395 -0.056685437 0.06543843 -0.056924667 0.026784686 0.022071334 -0.09827439
-0.14009337 -0.020428324 0.031094758 0.0047444575 -0.13326153 -0.026665885 0.009715102 -0.032474797
-0.010038132 -0.051424533 0.025352355 0.07625009 0.082202844 0.0016502931 -0.11304189 0.0492362
0.06415718 0.09144597 -0.16971064 0.014425854 0.05587433 -0.012574923 -0.12667662 -0.006932488
-0.06384038 -0.06392662 0.03476831 -0.020158617 0.044313088 -0.03991161 -0.0030077563 0.019356111
0.056766417 0.05431581 -0.004901003 -0.06734991 -0.010808172 -0.026951293 0.05371049 -0.012369432
-0.08004008 -0.04362577 0.005558387 0.013095952 0.020540107 -0.107908934 -0.03019546 0.04049909
-0.0052993833 0.0020505756 0.016377013 -0.00054483494 0.007224493 -0.111490235 -0.114501856 -0.029013352
0.08602958 -0.19590168 0.011961146 0.075790316 0.05149448 -0.018131688 -0.0037403668 -0.027645614
-0.0065132403 -0.09880596 0.043606516 -0.005178399 -0.04724475 0.03797942 -0.09618304 0.023404293
-0.008368429 0.02105061 0.016008563 0.03301321 -0.04836689 0.0071097575 -0.07027116 -0.0068641403
-0.050119635 -0.011182914 -0.0014742817 0.05224045 0.019124677 0.042893235 -0.09285746 -0.011790946
-0.16879639 0.0473404 -0.09539661 0.05109577 0.005647762 -0.12250749 -0.03537109 -0.006523367
-0.06308801 -0.070978634 -0.090539224 0.12972361 -0.12647834 -0.05161613 -0.015080908 0.025905484
0.019729521 -0.08435375 -0.12837262 -0.057173382 -0.017335743 0.035051085 -0.05986302 0.0676452

network_body._body_endoder.seq_layers.0.weight f4 [128, 6]
00000000: 90cf 8c3e 11bd 8f3c 7dbc 53be 6432 6d3e
00000010: 3c3a 223f f7aa b4be 85dc 35bf 4612 423e
00000020: 00c6 afbe ba98 e9be cd49 873e fefe babe
00000030: 9442 35bf add2 cc3e afa0 b03e 1ffe 87be
00000040: 381a 37bd 8bbb a0bc 8ab5 b5be 37b8 153e
00000050: 26e6 da3d d903 933e c4a4 d23e 2bd5 773e
00000060: 411e 17bf 27b0 0d3d e383 3cbf db53 0bbf
00000070: 70a4 c2be f1f1 033f 3866 253e b7c6 59be
00000080: 483c 27bf c52c 08be 5ece 62be d033 9f3f
00000090: 3948 da3d 8ec5 a8bc c063 ebbc 7aa4 e63e
000000a0: 1b1d 4a3e ccd6 bfbb cd8d 353f 9d17 54be
000000b0: 53b0 89be 521b d33d 2825 273f b4a9 883e
000000c0: 388e b23e 2180 a43e ea87 913f 9b4a 6c3f
000000d0: 2556 a53d 49c2 02bd ac16 62bd 7238 2cbe
000000e0: 75bb 19be 5e4e 2c3f 8faf 15be 0814 5a3e
000000f0: 74f8 933e f100 98be c4de 073f 428d 173f
00000100: 3a0a 9d3c 5150 0e3d 5bfc 0d3f 768e 25be
00000110: c3b2 adbd e377 a7be a50f 1d3f c63b cdbe
00000120: d731 a8be 9bd1 9cbf 5988 39bf 79af dabe
00000130: 898e babe 3ba0 04bf 63fa 0a3e 05ef 2ebf
00000140: 0d6a b0be 78c0 eabd 8111 023e bd14 61bf
00000150: 1d46 93be 30b9 ee3e dc9c 3f3f 6d1e fabd
00000160: a74a 50bf 86c0 583f f0d3 693e 5ecc 003e
00000170: 7097 a4be ed45 5b3d e8eb e6be a034 053e
00000180: d4ba 7f3e e911 f03e 7464 1ebe 677a 67bf
00000190: cb3b 96bf 5268 623e 3483 30be 3cdc 42be
000001a0: 17a0 a6bd e95d 5f3e 85dc 43bd 9d04 c5be
000001b0: 8690 9abe 05cf 38be 380d b4be a6e6 113f
000001c0: cc95 5f3e 1b2a c4be a195 3cbe e7dc 00bf
000001d0: 846c 113e 860d cc3e 58ac 083f 6809 9dbe
000001e0: 797e 943e cf95 d13e 08a0 edbe 0b2f 003f
000001f0: 97d4 b73e dc26 4d3e 23b1 65bf 7fe2 8abe
00000200: bc12 313e 972b e1be 4c71 da3e 7174 883d
00000210: b406 2fbf b949 943e 54fb ecbe ca70 283f
00000220: 9ec7 a63e dd91 073f 0325 dc3e fcf9 25be
00000230: 72c3 f83e 7f3d 9f3e 9665 6abe 74a1 733f
00000240: e46d 19bd c763 6ebc 2e19 b3be eb59 34ba
00000250: 7b1a bd3e 1e30 223f ee26 3abe 45f2 8cbe
00000260: 46cf 463d e564 fdbe 540c e23d 0f36 d2be
00000270: 53de 5abe 36a1 bdbe 6397 2d3f c8cb b23e
00000280: 3f14 1bbf 9000 22bd 65b5 a93e 39ac 0a3f
00000290: 751d d7be b724 b1be ed0a c5be 71f8 cdbd
000002a0: 4d11 cebe caff 653d f502 a7bd 071a 713e
000002b0: 94a8 2f3f c26a 133f 90b8 dabe 7097 01bf
000002c0: 8e56 e03e 26ba ee3d 96a2 153f bd61 033f
000002d0: 2d00 7fbe 0b3b 03bf 9aab 843e f794 6bbf
000002e0: 481c 103e 112e 1ebf 5f95 64be 8034 e8be
000002f0: de30 82be 1e8f debd 558e f03d 0ea6 4ebf
00000300: 9ef5 cabe 2088 19be 9635 edbe 1c05 953e
00000310: aa6f 32bf a224 5bbc 6b50 aa3e 60bf a43e
00000320: 6ec2 063f 51ba acbe d687 c83d a9b3 4f3e
00000330: 9854 e63e 633c b03e 0b8b 783e 83bf d13e
00000340: dd5a f7bd 4535 35be e24a c23d 95a3 1b3f
00000350: e42d 203f aff3 9bbd 278c a63e 5bad 71bd
00000360: 5af3 e53e 1969 b2be 8dfa 553f 6188 7ebe
00000370: 686c c03e 7006 ab3e e21a 9dbe 3556 cebd
00000380: 380e 19bf 349b e2be 29f5 dfbe 8999 bc3e
00000390: 8e52 e0bc e3d1 5cbe 8bc0 18be 7fed 2c3d
000003a0: 177d afbd bb10 82be cb32 b8be 1c69 8b3e
000003b0: 6ca1 e73d 27fd 00bf 880b a4bd e62b 903d
000003c0: fb55 dfbe 03d4 d73e 1842 b2bd 7c85 3abf
000003d0: a75a a43d 1251 6abf d3f4 2b3d 8f35 393d
000003e0: 18a3 98be 2877 103e 069c d8bd 5ea9 ba3d
000003f0: 05e4 f2be ece4 4f3e 7b49 8f3d e66c 163f
0.27502108 0.017546209 -0.20677371 0.23163754 0.6337011 -0.35286686 -0.7103961 0.18952283
-0.3433075 -0.45624334 0.26423493 -0.3652267 -0.70804715 0.40004483 0.34497592 -0.26561067
-0.04470274 -0.019620677 -0.35490066 0.14621054 0.106884286 0.28713873 0.4114133 0.24202411
-0.5903054 0.03459182 -0.73638743 -0.5442483 -0.3801608 0.5154105 0.16152275 -0.2126721
-0.65326357 -0.13298328 -0.22149035 1.2437687 0.10658307 -0.020602014 -0.028734088 0.4504736
0.19737665 -0.005854463 0.70919496 -0.20712133 -0.26892337 0.10307945 0.6529107 0.26691973
0.3487413 0.32129005 1.1369603 0.9230134 0.080730714 -0.031923566 -0.055197403 -0.16818407
-0.15012915 0.6730708 -0.14617752 0.21296704 0.28900492 -0.29688218 0.5307429 0.5919992
0.019169915 0.034744564 0.5546319 -0.16167626 -0.08481362 -0.32708654 0.61351997 -0.40084666
-0.32850525 -1.2251467 -0.72473675 -0.42712 -0.3643687 -0.5180699 0.13572077 -0.68333465
-0.3445591 -0.11462492 0.1270199 -0.8792227 -0.2876443 0.46625662 0.74848723 -0.122128345
-0.8136391 0.8466877 0.22834754 0.1257796 -0.32146788 0.053533483 -0.45101857 0.13008356
0.24973613 0.46888664 -0.15468007 -0.90421146 -1.1736997 0.22110108 -0.1723755 -0.19029325
-0.081360035 0.21813168 -0.047817726 -0.38480082 -0.30188388 -0.18047722 -0.35166335 0.56992567
0.21834487 -0.38313374 -0.18416454 -0.5033707 0.14201552 0.39854068 0.53387976 -0.3067124
0.2900274 0.40934607 -0.46411157 0.5007178 0.3590438 0.20034355 -0.89723414 -0.27125928
0.17292303 -0.4397857 0.42664564 0.066628344 -0.68369603 0.28962496 -0.46285498 0.657971
0.3257417 0.52956945 0.42996988 -0.16208643 0.48586613 0.31101605 -0.22890314 0.9516823
-0.037458315 -0.014550156 -0.34980148 -0.0006879854 0.36934265 0.6335467 -0.18178913 -0.27528587
0.048537515 -0.4949104 0.11037508 -0.41056868 -0.21373872 -0.37037057 0.6780912 0.34921098
-0.6057777 -0.039551318 0.33146206 0.5416904 -0.4201466 -0.34598324 -0.38484898 -0.10057152
-0.40247574 0.056152143 -0.08154861 0.23545085 0.68616605 0.57584774 -0.42718935 -0.506217
0.43816036 0.11656599 0.5845121 0.5132101 -0.24902411 -0.5126197 0.25912172 -0.9202418
0.14073288 -0.6178904 -0.22322606 -0.45352554 -0.25427908 -0.10867141 0.11745898 -0.8072213
-0.39640516 -0.14993334 -0.46329945 0.2910546 -0.69701636 -0.013375433 0.3326448 0.32177258
0.52640426 -0.33735898 0.09791534 0.20283379 0.44986415 0.3442107 0.2427179 0.40966424
-0.12077878 -0.17696102 0.09486939 0.6079648 0.62570024 -0.07614838 0.32528803 -0.059003215
0.44912225 -0.34845808 0.83585435 -0.24856712 0.37582707 0.3340335 -0.30684572 -0.100750364
-0.5978732 -0.44259036 -0.4374173 0.36835888 -0.027383115 -0.2156444 -0.149172 0.04221868
-0.08568781 -0.2540339 -0.35976252 0.2722863 0.11310086 -0.5038628 -0.08010012 0.07039623
-0.43620285 0.4215394 -0.08704013 -0.7285993 0.08025103 -0.91529953 0.04198153 0.045217093
-0.2981193 0.14107955 -0.10576634 0.091143355 -0.4743959 0.2030217 0.06996437 0.58759916

network_body._body_endoder.seq_layers.2.bias f4 [128]
00000000: 1ce3 ffbc 815f 20bc 2590 9abb 2b17 bbbc
00000010: 1c04 62bc 1351 b8bd ed56 4c3c 47fc 09be
00000020: 451c 333d 8dcb 4abc 1640 8f3b a400 413b
00000030: 7cf3 30bc d2a6 59bb 8402 cc3b ad32 56bc
00000040: 6232 aebc 1b18 70bc 9d26 833a 3555 a9bc
00000050: 76e0 fe3c 385d 93bc 3394 a5bd 5049 23bd
00000060: c05d 413d 76c5 f0bc 761c 0a3c 18ee 02bc
00000070: b63c 8b3d 0c3d 34bc 065e 19bd 9b0c b4bd
00000080: 199f d5bc bb54 afbb 12f5 f4bc 4e88 3abd
00000090: 4a01 ecbc ec87 06be 8622 25bc d305 46bc
000000a0: f05a a03c 1846 053c eb8a 8fbc b0c0 33be
000000b0: f5fd 913c 3edb 3bbc 406e 7b3d 9370 c03c
000000c0: b6fb 89b8 7de0 53bc 2556 bbbd 7d18 03bd
000000d0: cc8d 94bc 3a35 7d3c 10e5 503d 5893 673c
000000e0: 3916 013d b40c cbbc 28a6 91bc dc4c 17bc
000000f0: 984f 54bd 73aa 9d3d 21f0 70bd 7e4f 073d
00000100: 2bc1 03be 6bbe 963c e3fd 2dbc 2fa8 febc
00000110: 9b6a 3d3d e9ff 7ebc af65 353d 1771 d6bc
00000120: 2c12 6f3b 45c4 4b3d 74ba 353d 63bd 643b
00000130: 9662 22bd 381f 8dbb 6d82 90bd a3bd 35bb
00000140: b6ff afbc 7a6e a2bd 758c 43ba 85a9 733d
00000150: 7d8b b3bd 9ea1 fcbc 93c1 8a3d 693e dfbc
00000160: ae11 c5bb c700 d33c e043 113d da46 abbc
00000170: 1272 53bc c79f b23a ce94 083d 98c2 b3bd
00000180: bf8b 103d 6265 62bc f124 0b3d a236 b9bc
00000190: 06c5 2e3d 3551 803b a228 0fbd 5de1 1c3c
000001a0: 7ac9 c4bc 6528 1abe 88d8 183d f081 523c
000001b0: 1b9c 61bc 3faa 5b3c 86fe 833c b540 46bc
000001c0: bee6 85bb 8e38 523d 9a99 8bbc f97c 733c
000001d0: 87d9 90bc 931c efbc 51e8 cbbc 5e86 11bd
000001e0: 12eb 6bbc 62d5 b53c 9511 ecbc ef88 06bb
000001f0: 9801 c0bc e6c2 893d e73c c6bc 251e 32bc
-0.031236224 -0.009788395 -0.0047168904 -0.022838196 -0.013794925 -0.08999839 0.012471897 -0.13475142
0.04372813 -0.012377632 0.0043716533 0.0029449845 -0.010800239 -0.0033211005 0.006225886 -0.0130736055
-0.021264259 -0.014654185 0.0010006014 -0.020670513 0.03111289 -0.017988786 -0.080849074 -0.039864838
0.047208548 -0.029391032 0.008429637 -0.007991336 0.06798689 -0.011000883 -0.037443183 -0.08791467
-0.02607684 -0.005350677 -0.029902015 -0.045540147 -0.028809208 -0.13137788 -0.010079032 -0.01208635
0.019574612 0.008134387 -0.017522296 -0.17553973 0.017821291 -0.011465846 0.06138444 0.02349118
-6.579554e-05 -0.01293194 -0.0914729 -0.032005776 -0.01813402 0.015454585 0.0509997 0.014134251
0.031515334 -0.02478633 -0.017779425 -0.009234633 -0.05183372 0.07698526 -0.058822755 0.033034794
-0.12866656 0.018401345 -0.010619613 -0.031086056 0.046244245 -0.015563943 0.044286426 -0.026176972
0.0036479337 0.049747724 0.04436727 0.0034902922 -0.0396448 -0.0043067 -0.07056127 -0.002773144
-0.021484237 -0.07931228 -0.00074595894 0.05948784 -0.0876684 -0.030838784 0.067752026 -0.02725144
-0.0060140705 0.025757207 0.03546512 -0.020907808 -0.012905614 0.001362794 0.033345036 -0.0877735
0.035289522 -0.013818117 0.033970777 -0.022609059 0.042668365 0.0039159306 -0.03495086 0.009575215
-0.024021853 -0.15054472 0.037315875 0.012848362 -0.013770129 0.013407289 0.016112577 -0.012100388
-0.0040863445 0.051323466 -0.017041016 0.014861339 -0.01768185 -0.02918843 -0.02489105 -0.035528533
-0.014399307 0.022196475 -0.028816978 -0.0020528396 -0.02343826 0.06726627 -0.024198962 -0.010871445

network_body._body_endoder.seq_layers.2.weight f4 [128, 128]
00000000: 5b78 35bd 3de2 153e ab71 103e 5c16 00bd
00000010: 1751 043c fb30 ed3d 89ec a5bd a714 a6bd
00000020: a740 c1bd 93ba 10be 52ef aebc c7de 02be
00000030: 6e20 df3d 1076 653e f796 10be 8385 00bd
00000040: 7003 d13c 5cca 903d 9b5e dbb9 6be5 2dbe
00000050: 5887 2dbd c6f2 ae3d 8b95 233e 7e09 b3bd
00000060: 9e71 203e 20b9 093b af53 d6bb 66ca 023e
00000070: 6be7 babc a9b7 99bd f22d cabc 3a44 9abc
00000080: 8302 163b c674 bd3c 58c7 48bd 32f9 48bd
00000090: cbf3 1abe 500c e43c dfea f0bb b1af 11bc
000000a0: b21f a9bc 6197 7dbd 3783 393e 0184 2d3d
000000b0: fb3d c7bd 02cb 5f3e 368e adbd 9160 28be
000000c0: f1ad 57bd 1a7c 80bd 2497 743d 33f5 9ebd
000000d0: 083d 383d a649 c3bd 2c75 5e3d 747c a4bd
000000e0: 12df f1bb 52ef 8fbd 4f98 7e3d 7e96 033e
000000f0: 3d1c 2a3e 572f ae3d 21a3 f1bb 9780 b43d
00000100: da77 50be 7dfc 2b3c 99a4 93bc 3c1c 57be
00000110: 4cf2 1bbc bbac d33d c0f9 86bd 7382 27bd
00000120: 7408 e2bd 9cfb 173e c690 0c3e 7c61 8c3d
00000130: 619e 08be 903f 933d 1baa 64be bd2e 5bbc
00000140: 7d95 9a3c c34b 85bc fe4f 0b3e c9cb 0ebd
00000150: 386d 443d 8957 b03d c231 b43d 9f7f 263e
00000160: 30cf 4abe b1bb 0d3e 14a6 30be 64d8 04bc
00000170: b137 21be 9156 73bc d74c 653e 122e 01bd
00000180: 7f7a 19be 7c21 d2bc 0139 ef3d 252d 33bd
00000190: a711 e23d d71f 56bb f0ef e53d ebcf 113e
000001a0: 8860 c83d 9b3d ecbd 81dc e83c 44f8 113e
000001b0: 1307 aa3d 041c 28be 8903 83bc 408c b83d
000001c0: a85a fd3d 5389 e4bd 50be 4c3d 5efc 583e
000001d0: d32c 05be 2ebb 2ebd 0c72 b6bd 91ef 05be
000001e0: 229c f13c 1edb f13a 67fd d5bd 2e46 b03b
000001f0: 6be5 22bd fe20 74bd 664b 043d 1ce8 643d
00000200: f8a9 703d 9281 a33d 782b 11be 71c6 23bd
00000210: 8cd8 893d 9b0d 12bd d15f 9e3c 4ede 023d
00000220: e34d 6fbb d2b3 953c 4d05 20bd 4635 c83d
00000230: f3aa 4fbd 1b0b be3d e733 45bd 76e1 97bd
00000240: 00e0 b53d d92c 2dbd 698b 39bd 2c0e 093d
00000250: 310b ea3d d7c0 b23d 7448 e0bd 0473 263a
00000260: a117 ae3c 784e f03b 34c8 8ebc ec6e 1cbe
00000270: e6c2 52bd 18af 093b 33de de3d b4c1 ad3d
00000280: 6343 0dbe 5ce9 813b 0fad b63d d23a eb3c
00000290: e640 eb3d d6eb 28bc 3b02 60bd 4050 50bd
000002a0: 5822 393d ed4f 7ebd d07d cebd 3541 1bbd
000002b0: 3037 1fbd 5dbf 2cbe 7fb3 dc3d 05a1 2c3d
000002c0: 9338 df3d 90da 11bd d39a 8d3d 5c93 5abe
000002d0: 384d 043e 493f 4cbe 83b3 c33c c230 8b3b
000002e0: 9ca1 233d ff2f 69be 0a36 a7bc 82c7 fabd
000002f0: 906d 2fbd 0f20 a93d c958 263d e33d 80bd
00000300: e197 07be 4881 dbbb 356f b9bc a948 ad3d
00000310: f411 b53d a7a6 7fbd 589e 68bd 2f58 b5bb
00000320: f92b 493c 07e1 84bd be3f d1bd a669 dcbd
00000330: 5878 e7bd 73c3 44bc 0c3d 2e3d 14dc bcbd
00000340: 6e38 09bd 967f 16bc 57c9 923d a3bc e13d
00000350: 1b3e 303e 7d97 82bd b1c7 fabd 9a04 95bd
00000360: fc74 4f3e 6eff 9ebd 5ad0 1d3e 58d0 13bd
00000370: e96e a7bd de7d 64be fb64 27bb 74ea 46be
00000380: e90e 87bd c7d0 b33d aad3 cdbd 1c2a b83b
00000390: ab3c 053c 54e0 083e c161 1bbd 34fd 083d
000003a0: 3a15 24bc 86a3 2cbd 4817 10bc 3f17 753d
000003b0: 3f65 5ebd 5606 8bbd 4983 863d 23a8 c6bd
000003c0: 72e8 52bd e7e6 453d 028a c6bd 20db c6bd
000003d0: 08c9 943d dea8 d23d d85a c33c 72af eebd
000003e0: 8af5 bd3c 698e 8dbd d781 00be 385a d93c
000003f0: 34c2 293e 8300 083d 5d03 c5bd 62f9 52bd
-0.044304233 0.14637084 0.14105861 -0.031271324 0.008075974 0.11581608 -0.08101756 -0.08109408
-0.094361596 -0.14133672 -0.021354351 -0.12780295 0.10894857 0.22408319 -0.14120089 -0.031377327
0.025514334 0.07069847 -0.00041841422 -0.16982047 -0.042365402 0.08542399 0.15975015 -0.08742045
0.15668342 0.0021014884 -0.0065407376 0.12772521 -0.022815427 -0.075057335 -0.024680112 -0.018831361
0.002288968 0.023126971 -0.049018234 -0.049065776 -0.15132062 0.027837902 -0.0073522176 -0.008891986
-0.020644996 -0.061911944 0.1811646 0.042362217 -0.09728619 0.21854785 -0.0847439 -0.16443087
-0.052656118 -0.062736705 0.05971445 -0.07761612 0.04498008 -0.09535532 0.054310963 -0.0803155
-0.0073813284 -0.070280686 0.06215697 0.12850377 0.16612335 0.08505123 -0.007374183 0.08813589
-0.2035822 0.01049721 -0.018022822 -0.21006864 -0.009518217 0.1033568 -0.06590605 -0.04089589
-0.110367686 0.14842075 0.13727102 0.06854531 -0.13341667 0.07189858 -0.22330515 -0.0133778425
0.01887011 -0.016271478 0.13604733 -0.034862313 0.04795572 0.08610446 0.08798553 0.16259621
-0.19805598 0.1384113 -0.17250854 -0.008108232 -0.15743901 -0.014852182 0.22392593 -0.031538077
-0.14988135 -0.025650732 0.116807945 -0.043744225 0.11038523 -0.0032672787 0.11227405 0.1423947
0.09784037 -0.11535188 0.028425457 0.14254862 0.083021306 -0.16416937 -0.015992897 0.090111256
0.12370807 -0.11159005 0.049986184 0.2119002 -0.1300538 -0.042658977 -0.089084715 -0.13079669
0.029493395 0.0018452143 -0.10448723 0.00537946 -0.03976957 -0.059601776 0.032298468 0.05588542
0.058755845 0.07983698 -0.14176738 -0.03998417 0.06730756 -0.035657506 0.019332798 0.031950288
-0.003651493 0.018274222 -0.039067555 0.09775786 -0.05070014 0.09279462 -0.0481452 -0.0741605
0.08880615 -0.0422791 -0.045298968 0.03346078 0.11427916 0.087281875 -0.10951319 0.0006349536
0.021251502 0.007333573 -0.017429449 -0.15276688 -0.0514554 0.0021008905 0.10882225 0.084842116
-0.13795237 0.003964586 0.08919727 0.028714571 0.11486988 -0.010310134 -0.054689627 -0.050857782
0.04519877 -0.062087942 -0.100825906 -0.037903983 -0.03887099 -0.16869874 0.10776424 0.042145748
0.108994626 -0.035608828 0.06914296 -0.21345276 0.12920082 -0.19946016 0.023889309 0.0042477557
0.039949045 -0.22772215 -0.02041151 -0.12245084 -0.042829096 0.08258068 0.040612016 -0.06261804
-0.13241531 -0.006698761 -0.022636035 0.084611244 0.08841315 -0.06241479 -0.056791633 -0.005534194
0.01227855 -0.06488233 -0.10217236 -0.10762338 -0.113022506 -0.012009489 0.042538688 -0.09221664
-0.03350108 -0.009185692 0.07167309 0.11022308 0.17211191 -0.0637655 -0.12245119 -0.07276268
0.2025947 -0.07763563 0.15411511 -0.036087364 -0.08175451 -0.2231364 -0.0025542367 -0.19425374
-0.06594641 0.087800555 -0.10050137 0.005620254 0.00813214 0.13366824 -0.037935022 0.0334446
-0.010014826 -0.042148136 -0.008794613 0.059836622 -0.054295775 -0.06788318 0.065680094 -0.09700038
-0.05149121 0.04831591 -0.09694292 -0.097097635 0.07264906 0.10286115 0.023847029 -0.11654557
0.023188371 -0.06911928 -0.1254953 0.026532277 0.16577989 0.033203613 -0.09619782 -0.05150736
